<?xml version="1.0" ?>
<net batch="1" name="latest_net_G_FP32" version="4">
	<layers>
		<layer id="0" name="input.1" precision="FP32" type="Input">
			<output>
				<port id="0">
					<dim>1</dim>
					<dim>3</dim>
					<dim>256</dim>
					<dim>256</dim>
				</port>
			</output>
		</layer>
		<layer id="1" name="MirrorPad" precision="FP32" type="Pad">
			<data pad_mode="reflect" pad_value="0.0" pads_begin="0,0,3,3" pads_end="0,0,3,3"/>
			<input>
				<port id="0">
					<dim>1</dim>
					<dim>3</dim>
					<dim>256</dim>
					<dim>256</dim>
				</port>
			</input>
			<output>
				<port id="1">
					<dim>1</dim>
					<dim>3</dim>
					<dim>262</dim>
					<dim>262</dim>
				</port>
			</output>
		</layer>
		<layer id="2" name="convolution" precision="FP32" type="Convolution">
			<data auto_pad="valid" dilations="1,1" group="1" kernel="7,7" output="64" pads_begin="0,0" pads_end="0,0" strides="1,1"/>
			<input>
				<port id="0">
					<dim>1</dim>
					<dim>3</dim>
					<dim>262</dim>
					<dim>262</dim>
				</port>
			</input>
			<output>
				<port id="2">
					<dim>1</dim>
					<dim>64</dim>
					<dim>256</dim>
					<dim>256</dim>
				</port>
			</output>
			<blobs>
				<weights offset="0" size="37632"/>
			</blobs>
		</layer>
		<layer id="3" name="convolution/Permute_2234" precision="FP32" type="Permute">
			<data order="0,2,3,1"/>
			<input>
				<port id="0">
					<dim>1</dim>
					<dim>64</dim>
					<dim>256</dim>
					<dim>256</dim>
				</port>
			</input>
			<output>
				<port id="1">
					<dim>1</dim>
					<dim>256</dim>
					<dim>256</dim>
					<dim>64</dim>
				</port>
			</output>
		</layer>
		<layer id="4" name="Const_1/Output_0/Data_/copy_const" precision="FP32" type="Const">
			<output>
				<port id="1">
					<dim>1</dim>
					<dim>1</dim>
					<dim>1</dim>
					<dim>64</dim>
				</port>
			</output>
			<blobs>
				<custom offset="37632" size="256"/>
			</blobs>
		</layer>
		<layer id="5" name="Add/Broadcast/" precision="FP32" type="Tile">
			<data axis="1" tiles="256"/>
			<input>
				<port id="0">
					<dim>1</dim>
					<dim>1</dim>
					<dim>1</dim>
					<dim>64</dim>
				</port>
			</input>
			<output>
				<port id="1">
					<dim>1</dim>
					<dim>256</dim>
					<dim>1</dim>
					<dim>64</dim>
				</port>
			</output>
		</layer>
		<layer id="6" name="Add/Broadcast/2733" precision="FP32" type="Tile">
			<data axis="2" tiles="256"/>
			<input>
				<port id="0">
					<dim>1</dim>
					<dim>256</dim>
					<dim>1</dim>
					<dim>64</dim>
				</port>
			</input>
			<output>
				<port id="1">
					<dim>1</dim>
					<dim>256</dim>
					<dim>256</dim>
					<dim>64</dim>
				</port>
			</output>
		</layer>
		<layer id="7" name="Add" precision="FP32" type="Eltwise">
			<data operation="sum"/>
			<input>
				<port id="0">
					<dim>1</dim>
					<dim>256</dim>
					<dim>256</dim>
					<dim>64</dim>
				</port>
				<port id="1">
					<dim>1</dim>
					<dim>256</dim>
					<dim>256</dim>
					<dim>64</dim>
				</port>
			</input>
			<output>
				<port id="2">
					<dim>1</dim>
					<dim>256</dim>
					<dim>256</dim>
					<dim>64</dim>
				</port>
			</output>
		</layer>
		<layer id="8" name="transpose_2" precision="FP32" type="Permute">
			<data order="0,3,1,2"/>
			<input>
				<port id="0">
					<dim>1</dim>
					<dim>256</dim>
					<dim>256</dim>
					<dim>64</dim>
				</port>
			</input>
			<output>
				<port id="1">
					<dim>1</dim>
					<dim>64</dim>
					<dim>256</dim>
					<dim>256</dim>
				</port>
			</output>
		</layer>
		<layer id="9" name="moments/mean" precision="FP32" type="Pooling">
			<data exclude-pad="true" kernel="256,256" pads_begin="0,0" pads_end="0,0" pool-method="avg" rounding-type="ceil" strides="1,1"/>
			<input>
				<port id="0">
					<dim>1</dim>
					<dim>64</dim>
					<dim>256</dim>
					<dim>256</dim>
				</port>
			</input>
			<output>
				<port id="1">
					<dim>1</dim>
					<dim>64</dim>
					<dim>1</dim>
					<dim>1</dim>
				</port>
			</output>
		</layer>
		<layer id="10" name="moments/SquaredDifference/negate_" precision="FP32" type="Power">
			<data power="1" scale="-1" shift="0"/>
			<input>
				<port id="0">
					<dim>1</dim>
					<dim>64</dim>
					<dim>1</dim>
					<dim>1</dim>
				</port>
			</input>
			<output>
				<port id="1">
					<dim>1</dim>
					<dim>64</dim>
					<dim>1</dim>
					<dim>1</dim>
				</port>
			</output>
		</layer>
		<layer id="11" name="moments/SquaredDifference/add_/Broadcast/" precision="FP32" type="Tile">
			<data axis="2" tiles="256"/>
			<input>
				<port id="0">
					<dim>1</dim>
					<dim>64</dim>
					<dim>1</dim>
					<dim>1</dim>
				</port>
			</input>
			<output>
				<port id="1">
					<dim>1</dim>
					<dim>64</dim>
					<dim>256</dim>
					<dim>1</dim>
				</port>
			</output>
		</layer>
		<layer id="12" name="moments/SquaredDifference/add_/Broadcast/2441" precision="FP32" type="Tile">
			<data axis="3" tiles="256"/>
			<input>
				<port id="0">
					<dim>1</dim>
					<dim>64</dim>
					<dim>256</dim>
					<dim>1</dim>
				</port>
			</input>
			<output>
				<port id="1">
					<dim>1</dim>
					<dim>64</dim>
					<dim>256</dim>
					<dim>256</dim>
				</port>
			</output>
		</layer>
		<layer id="13" name="moments/SquaredDifference/add_" precision="FP32" type="Eltwise">
			<data operation="sum"/>
			<input>
				<port id="0">
					<dim>1</dim>
					<dim>64</dim>
					<dim>256</dim>
					<dim>256</dim>
				</port>
				<port id="1">
					<dim>1</dim>
					<dim>64</dim>
					<dim>256</dim>
					<dim>256</dim>
				</port>
			</input>
			<output>
				<port id="2">
					<dim>1</dim>
					<dim>64</dim>
					<dim>256</dim>
					<dim>256</dim>
				</port>
			</output>
		</layer>
		<layer id="14" name="moments/SquaredDifference/squared_" precision="FP32" type="Power">
			<data power="2" scale="1" shift="0"/>
			<input>
				<port id="0">
					<dim>1</dim>
					<dim>64</dim>
					<dim>256</dim>
					<dim>256</dim>
				</port>
			</input>
			<output>
				<port id="1">
					<dim>1</dim>
					<dim>64</dim>
					<dim>256</dim>
					<dim>256</dim>
				</port>
			</output>
		</layer>
		<layer id="15" name="moments/variance" precision="FP32" type="Pooling">
			<data exclude-pad="true" kernel="256,256" pads_begin="0,0" pads_end="0,0" pool-method="avg" rounding-type="ceil" strides="1,1"/>
			<input>
				<port id="0">
					<dim>1</dim>
					<dim>64</dim>
					<dim>256</dim>
					<dim>256</dim>
				</port>
			</input>
			<output>
				<port id="1">
					<dim>1</dim>
					<dim>64</dim>
					<dim>1</dim>
					<dim>1</dim>
				</port>
			</output>
		</layer>
		<layer id="16" name="instancenorm/add" precision="FP32" type="Power">
			<data power="1" scale="1" shift="9.999999747378752e-06"/>
			<input>
				<port id="0">
					<dim>1</dim>
					<dim>64</dim>
					<dim>1</dim>
					<dim>1</dim>
				</port>
			</input>
			<output>
				<port id="1">
					<dim>1</dim>
					<dim>64</dim>
					<dim>1</dim>
					<dim>1</dim>
				</port>
			</output>
		</layer>
		<layer id="17" name="instancenorm/Rsqrt" precision="FP32" type="Power">
			<data power="-0.5" scale="1" shift="0"/>
			<input>
				<port id="0">
					<dim>1</dim>
					<dim>64</dim>
					<dim>1</dim>
					<dim>1</dim>
				</port>
			</input>
			<output>
				<port id="1">
					<dim>1</dim>
					<dim>64</dim>
					<dim>1</dim>
					<dim>1</dim>
				</port>
			</output>
		</layer>
		<layer id="18" name="instancenorm/mul" precision="FP32" type="ScaleShift">
			<input>
				<port id="0">
					<dim>1</dim>
					<dim>64</dim>
					<dim>1</dim>
					<dim>1</dim>
				</port>
			</input>
			<output>
				<port id="3">
					<dim>1</dim>
					<dim>64</dim>
					<dim>1</dim>
					<dim>1</dim>
				</port>
			</output>
			<blobs>
				<weights offset="37888" size="256"/>
				<biases offset="38144" size="256"/>
			</blobs>
		</layer>
		<layer id="19" name="instancenorm/mul_1/Broadcast/" precision="FP32" type="Tile">
			<data axis="2" tiles="256"/>
			<input>
				<port id="0">
					<dim>1</dim>
					<dim>64</dim>
					<dim>1</dim>
					<dim>1</dim>
				</port>
			</input>
			<output>
				<port id="1">
					<dim>1</dim>
					<dim>64</dim>
					<dim>256</dim>
					<dim>1</dim>
				</port>
			</output>
		</layer>
		<layer id="20" name="instancenorm/mul_1/Broadcast/2413" precision="FP32" type="Tile">
			<data axis="3" tiles="256"/>
			<input>
				<port id="0">
					<dim>1</dim>
					<dim>64</dim>
					<dim>256</dim>
					<dim>1</dim>
				</port>
			</input>
			<output>
				<port id="1">
					<dim>1</dim>
					<dim>64</dim>
					<dim>256</dim>
					<dim>256</dim>
				</port>
			</output>
		</layer>
		<layer id="21" name="instancenorm/mul_1" precision="FP32" type="Eltwise">
			<data operation="mul"/>
			<input>
				<port id="0">
					<dim>1</dim>
					<dim>64</dim>
					<dim>256</dim>
					<dim>256</dim>
				</port>
				<port id="1">
					<dim>1</dim>
					<dim>64</dim>
					<dim>256</dim>
					<dim>256</dim>
				</port>
			</input>
			<output>
				<port id="2">
					<dim>1</dim>
					<dim>64</dim>
					<dim>256</dim>
					<dim>256</dim>
				</port>
			</output>
		</layer>
		<layer id="22" name="instancenorm/mul_2" precision="FP32" type="Eltwise">
			<data operation="mul"/>
			<input>
				<port id="0">
					<dim>1</dim>
					<dim>64</dim>
					<dim>1</dim>
					<dim>1</dim>
				</port>
				<port id="1">
					<dim>1</dim>
					<dim>64</dim>
					<dim>1</dim>
					<dim>1</dim>
				</port>
			</input>
			<output>
				<port id="2">
					<dim>1</dim>
					<dim>64</dim>
					<dim>1</dim>
					<dim>1</dim>
				</port>
			</output>
		</layer>
		<layer id="23" name="instancenorm/sub/negate_" precision="FP32" type="Power">
			<data power="1" scale="-1" shift="0"/>
			<input>
				<port id="0">
					<dim>1</dim>
					<dim>64</dim>
					<dim>1</dim>
					<dim>1</dim>
				</port>
			</input>
			<output>
				<port id="1">
					<dim>1</dim>
					<dim>64</dim>
					<dim>1</dim>
					<dim>1</dim>
				</port>
			</output>
		</layer>
		<layer id="24" name="instancenorm/sub/add_" precision="FP32" type="ScaleShift">
			<input>
				<port id="0">
					<dim>1</dim>
					<dim>64</dim>
					<dim>1</dim>
					<dim>1</dim>
				</port>
			</input>
			<output>
				<port id="3">
					<dim>1</dim>
					<dim>64</dim>
					<dim>1</dim>
					<dim>1</dim>
				</port>
			</output>
			<blobs>
				<weights offset="37888" size="256"/>
				<biases offset="38144" size="256"/>
			</blobs>
		</layer>
		<layer id="25" name="instancenorm/add_1/Broadcast/" precision="FP32" type="Tile">
			<data axis="2" tiles="256"/>
			<input>
				<port id="0">
					<dim>1</dim>
					<dim>64</dim>
					<dim>1</dim>
					<dim>1</dim>
				</port>
			</input>
			<output>
				<port id="1">
					<dim>1</dim>
					<dim>64</dim>
					<dim>256</dim>
					<dim>1</dim>
				</port>
			</output>
		</layer>
		<layer id="26" name="instancenorm/add_1/Broadcast/2593" precision="FP32" type="Tile">
			<data axis="3" tiles="256"/>
			<input>
				<port id="0">
					<dim>1</dim>
					<dim>64</dim>
					<dim>256</dim>
					<dim>1</dim>
				</port>
			</input>
			<output>
				<port id="1">
					<dim>1</dim>
					<dim>64</dim>
					<dim>256</dim>
					<dim>256</dim>
				</port>
			</output>
		</layer>
		<layer id="27" name="instancenorm/add_1" precision="FP32" type="Eltwise">
			<data operation="sum"/>
			<input>
				<port id="0">
					<dim>1</dim>
					<dim>64</dim>
					<dim>256</dim>
					<dim>256</dim>
				</port>
				<port id="1">
					<dim>1</dim>
					<dim>64</dim>
					<dim>256</dim>
					<dim>256</dim>
				</port>
			</input>
			<output>
				<port id="2">
					<dim>1</dim>
					<dim>64</dim>
					<dim>256</dim>
					<dim>256</dim>
				</port>
			</output>
		</layer>
		<layer id="28" name="Relu" precision="FP32" type="ReLU">
			<input>
				<port id="0">
					<dim>1</dim>
					<dim>64</dim>
					<dim>256</dim>
					<dim>256</dim>
				</port>
			</input>
			<output>
				<port id="1">
					<dim>1</dim>
					<dim>64</dim>
					<dim>256</dim>
					<dim>256</dim>
				</port>
			</output>
		</layer>
		<layer id="29" name="convolution_1" precision="FP32" type="Convolution">
			<data dilations="1,1" group="1" kernel="3,3" output="128" pads_begin="1,1" pads_end="1,1" strides="2,2"/>
			<input>
				<port id="0">
					<dim>1</dim>
					<dim>64</dim>
					<dim>256</dim>
					<dim>256</dim>
				</port>
			</input>
			<output>
				<port id="2">
					<dim>1</dim>
					<dim>128</dim>
					<dim>128</dim>
					<dim>128</dim>
				</port>
			</output>
			<blobs>
				<weights offset="38400" size="294912"/>
			</blobs>
		</layer>
		<layer id="30" name="convolution_1/Permute_2286" precision="FP32" type="Permute">
			<data order="0,2,3,1"/>
			<input>
				<port id="0">
					<dim>1</dim>
					<dim>128</dim>
					<dim>128</dim>
					<dim>128</dim>
				</port>
			</input>
			<output>
				<port id="1">
					<dim>1</dim>
					<dim>128</dim>
					<dim>128</dim>
					<dim>128</dim>
				</port>
			</output>
		</layer>
		<layer id="31" name="Const_6/Output_0/Data_/copy_const" precision="FP32" type="Const">
			<output>
				<port id="1">
					<dim>1</dim>
					<dim>1</dim>
					<dim>1</dim>
					<dim>128</dim>
				</port>
			</output>
			<blobs>
				<custom offset="333312" size="512"/>
			</blobs>
		</layer>
		<layer id="32" name="Add_1/Broadcast/" precision="FP32" type="Tile">
			<data axis="1" tiles="128"/>
			<input>
				<port id="0">
					<dim>1</dim>
					<dim>1</dim>
					<dim>1</dim>
					<dim>128</dim>
				</port>
			</input>
			<output>
				<port id="1">
					<dim>1</dim>
					<dim>128</dim>
					<dim>1</dim>
					<dim>128</dim>
				</port>
			</output>
		</layer>
		<layer id="33" name="Add_1/Broadcast/2621" precision="FP32" type="Tile">
			<data axis="2" tiles="128"/>
			<input>
				<port id="0">
					<dim>1</dim>
					<dim>128</dim>
					<dim>1</dim>
					<dim>128</dim>
				</port>
			</input>
			<output>
				<port id="1">
					<dim>1</dim>
					<dim>128</dim>
					<dim>128</dim>
					<dim>128</dim>
				</port>
			</output>
		</layer>
		<layer id="34" name="Add_1" precision="FP32" type="Eltwise">
			<data operation="sum"/>
			<input>
				<port id="0">
					<dim>1</dim>
					<dim>128</dim>
					<dim>128</dim>
					<dim>128</dim>
				</port>
				<port id="1">
					<dim>1</dim>
					<dim>128</dim>
					<dim>128</dim>
					<dim>128</dim>
				</port>
			</input>
			<output>
				<port id="2">
					<dim>1</dim>
					<dim>128</dim>
					<dim>128</dim>
					<dim>128</dim>
				</port>
			</output>
		</layer>
		<layer id="35" name="transpose_5" precision="FP32" type="Permute">
			<data order="0,3,1,2"/>
			<input>
				<port id="0">
					<dim>1</dim>
					<dim>128</dim>
					<dim>128</dim>
					<dim>128</dim>
				</port>
			</input>
			<output>
				<port id="1">
					<dim>1</dim>
					<dim>128</dim>
					<dim>128</dim>
					<dim>128</dim>
				</port>
			</output>
		</layer>
		<layer id="36" name="moments_1/mean" precision="FP32" type="Pooling">
			<data exclude-pad="true" kernel="128,128" pads_begin="0,0" pads_end="0,0" pool-method="avg" rounding-type="ceil" strides="1,1"/>
			<input>
				<port id="0">
					<dim>1</dim>
					<dim>128</dim>
					<dim>128</dim>
					<dim>128</dim>
				</port>
			</input>
			<output>
				<port id="1">
					<dim>1</dim>
					<dim>128</dim>
					<dim>1</dim>
					<dim>1</dim>
				</port>
			</output>
		</layer>
		<layer id="37" name="moments_1/SquaredDifference/negate_" precision="FP32" type="Power">
			<data power="1" scale="-1" shift="0"/>
			<input>
				<port id="0">
					<dim>1</dim>
					<dim>128</dim>
					<dim>1</dim>
					<dim>1</dim>
				</port>
			</input>
			<output>
				<port id="1">
					<dim>1</dim>
					<dim>128</dim>
					<dim>1</dim>
					<dim>1</dim>
				</port>
			</output>
		</layer>
		<layer id="38" name="moments_1/SquaredDifference/add_/Broadcast/" precision="FP32" type="Tile">
			<data axis="2" tiles="128"/>
			<input>
				<port id="0">
					<dim>1</dim>
					<dim>128</dim>
					<dim>1</dim>
					<dim>1</dim>
				</port>
			</input>
			<output>
				<port id="1">
					<dim>1</dim>
					<dim>128</dim>
					<dim>128</dim>
					<dim>1</dim>
				</port>
			</output>
		</layer>
		<layer id="39" name="moments_1/SquaredDifference/add_/Broadcast/2737" precision="FP32" type="Tile">
			<data axis="3" tiles="128"/>
			<input>
				<port id="0">
					<dim>1</dim>
					<dim>128</dim>
					<dim>128</dim>
					<dim>1</dim>
				</port>
			</input>
			<output>
				<port id="1">
					<dim>1</dim>
					<dim>128</dim>
					<dim>128</dim>
					<dim>128</dim>
				</port>
			</output>
		</layer>
		<layer id="40" name="moments_1/SquaredDifference/add_" precision="FP32" type="Eltwise">
			<data operation="sum"/>
			<input>
				<port id="0">
					<dim>1</dim>
					<dim>128</dim>
					<dim>128</dim>
					<dim>128</dim>
				</port>
				<port id="1">
					<dim>1</dim>
					<dim>128</dim>
					<dim>128</dim>
					<dim>128</dim>
				</port>
			</input>
			<output>
				<port id="2">
					<dim>1</dim>
					<dim>128</dim>
					<dim>128</dim>
					<dim>128</dim>
				</port>
			</output>
		</layer>
		<layer id="41" name="moments_1/SquaredDifference/squared_" precision="FP32" type="Power">
			<data power="2" scale="1" shift="0"/>
			<input>
				<port id="0">
					<dim>1</dim>
					<dim>128</dim>
					<dim>128</dim>
					<dim>128</dim>
				</port>
			</input>
			<output>
				<port id="1">
					<dim>1</dim>
					<dim>128</dim>
					<dim>128</dim>
					<dim>128</dim>
				</port>
			</output>
		</layer>
		<layer id="42" name="moments_1/variance" precision="FP32" type="Pooling">
			<data exclude-pad="true" kernel="128,128" pads_begin="0,0" pads_end="0,0" pool-method="avg" rounding-type="ceil" strides="1,1"/>
			<input>
				<port id="0">
					<dim>1</dim>
					<dim>128</dim>
					<dim>128</dim>
					<dim>128</dim>
				</port>
			</input>
			<output>
				<port id="1">
					<dim>1</dim>
					<dim>128</dim>
					<dim>1</dim>
					<dim>1</dim>
				</port>
			</output>
		</layer>
		<layer id="43" name="instancenorm_1/add" precision="FP32" type="Power">
			<data power="1" scale="1" shift="9.999999747378752e-06"/>
			<input>
				<port id="0">
					<dim>1</dim>
					<dim>128</dim>
					<dim>1</dim>
					<dim>1</dim>
				</port>
			</input>
			<output>
				<port id="1">
					<dim>1</dim>
					<dim>128</dim>
					<dim>1</dim>
					<dim>1</dim>
				</port>
			</output>
		</layer>
		<layer id="44" name="instancenorm_1/Rsqrt" precision="FP32" type="Power">
			<data power="-0.5" scale="1" shift="0"/>
			<input>
				<port id="0">
					<dim>1</dim>
					<dim>128</dim>
					<dim>1</dim>
					<dim>1</dim>
				</port>
			</input>
			<output>
				<port id="1">
					<dim>1</dim>
					<dim>128</dim>
					<dim>1</dim>
					<dim>1</dim>
				</port>
			</output>
		</layer>
		<layer id="45" name="instancenorm_1/mul" precision="FP32" type="ScaleShift">
			<input>
				<port id="0">
					<dim>1</dim>
					<dim>128</dim>
					<dim>1</dim>
					<dim>1</dim>
				</port>
			</input>
			<output>
				<port id="3">
					<dim>1</dim>
					<dim>128</dim>
					<dim>1</dim>
					<dim>1</dim>
				</port>
			</output>
			<blobs>
				<weights offset="333824" size="512"/>
				<biases offset="334336" size="512"/>
			</blobs>
		</layer>
		<layer id="46" name="instancenorm_1/mul_1/Broadcast/" precision="FP32" type="Tile">
			<data axis="2" tiles="128"/>
			<input>
				<port id="0">
					<dim>1</dim>
					<dim>128</dim>
					<dim>1</dim>
					<dim>1</dim>
				</port>
			</input>
			<output>
				<port id="1">
					<dim>1</dim>
					<dim>128</dim>
					<dim>128</dim>
					<dim>1</dim>
				</port>
			</output>
		</layer>
		<layer id="47" name="instancenorm_1/mul_1/Broadcast/2501" precision="FP32" type="Tile">
			<data axis="3" tiles="128"/>
			<input>
				<port id="0">
					<dim>1</dim>
					<dim>128</dim>
					<dim>128</dim>
					<dim>1</dim>
				</port>
			</input>
			<output>
				<port id="1">
					<dim>1</dim>
					<dim>128</dim>
					<dim>128</dim>
					<dim>128</dim>
				</port>
			</output>
		</layer>
		<layer id="48" name="instancenorm_1/mul_1" precision="FP32" type="Eltwise">
			<data operation="mul"/>
			<input>
				<port id="0">
					<dim>1</dim>
					<dim>128</dim>
					<dim>128</dim>
					<dim>128</dim>
				</port>
				<port id="1">
					<dim>1</dim>
					<dim>128</dim>
					<dim>128</dim>
					<dim>128</dim>
				</port>
			</input>
			<output>
				<port id="2">
					<dim>1</dim>
					<dim>128</dim>
					<dim>128</dim>
					<dim>128</dim>
				</port>
			</output>
		</layer>
		<layer id="49" name="instancenorm_1/mul_2" precision="FP32" type="Eltwise">
			<data operation="mul"/>
			<input>
				<port id="0">
					<dim>1</dim>
					<dim>128</dim>
					<dim>1</dim>
					<dim>1</dim>
				</port>
				<port id="1">
					<dim>1</dim>
					<dim>128</dim>
					<dim>1</dim>
					<dim>1</dim>
				</port>
			</input>
			<output>
				<port id="2">
					<dim>1</dim>
					<dim>128</dim>
					<dim>1</dim>
					<dim>1</dim>
				</port>
			</output>
		</layer>
		<layer id="50" name="instancenorm_1/sub/negate_" precision="FP32" type="Power">
			<data power="1" scale="-1" shift="0"/>
			<input>
				<port id="0">
					<dim>1</dim>
					<dim>128</dim>
					<dim>1</dim>
					<dim>1</dim>
				</port>
			</input>
			<output>
				<port id="1">
					<dim>1</dim>
					<dim>128</dim>
					<dim>1</dim>
					<dim>1</dim>
				</port>
			</output>
		</layer>
		<layer id="51" name="instancenorm_1/sub/add_" precision="FP32" type="ScaleShift">
			<input>
				<port id="0">
					<dim>1</dim>
					<dim>128</dim>
					<dim>1</dim>
					<dim>1</dim>
				</port>
			</input>
			<output>
				<port id="3">
					<dim>1</dim>
					<dim>128</dim>
					<dim>1</dim>
					<dim>1</dim>
				</port>
			</output>
			<blobs>
				<weights offset="333824" size="512"/>
				<biases offset="334336" size="512"/>
			</blobs>
		</layer>
		<layer id="52" name="instancenorm_1/add_1/Broadcast/" precision="FP32" type="Tile">
			<data axis="2" tiles="128"/>
			<input>
				<port id="0">
					<dim>1</dim>
					<dim>128</dim>
					<dim>1</dim>
					<dim>1</dim>
				</port>
			</input>
			<output>
				<port id="1">
					<dim>1</dim>
					<dim>128</dim>
					<dim>128</dim>
					<dim>1</dim>
				</port>
			</output>
		</layer>
		<layer id="53" name="instancenorm_1/add_1/Broadcast/2557" precision="FP32" type="Tile">
			<data axis="3" tiles="128"/>
			<input>
				<port id="0">
					<dim>1</dim>
					<dim>128</dim>
					<dim>128</dim>
					<dim>1</dim>
				</port>
			</input>
			<output>
				<port id="1">
					<dim>1</dim>
					<dim>128</dim>
					<dim>128</dim>
					<dim>128</dim>
				</port>
			</output>
		</layer>
		<layer id="54" name="instancenorm_1/add_1" precision="FP32" type="Eltwise">
			<data operation="sum"/>
			<input>
				<port id="0">
					<dim>1</dim>
					<dim>128</dim>
					<dim>128</dim>
					<dim>128</dim>
				</port>
				<port id="1">
					<dim>1</dim>
					<dim>128</dim>
					<dim>128</dim>
					<dim>128</dim>
				</port>
			</input>
			<output>
				<port id="2">
					<dim>1</dim>
					<dim>128</dim>
					<dim>128</dim>
					<dim>128</dim>
				</port>
			</output>
		</layer>
		<layer id="55" name="Relu_1" precision="FP32" type="ReLU">
			<input>
				<port id="0">
					<dim>1</dim>
					<dim>128</dim>
					<dim>128</dim>
					<dim>128</dim>
				</port>
			</input>
			<output>
				<port id="1">
					<dim>1</dim>
					<dim>128</dim>
					<dim>128</dim>
					<dim>128</dim>
				</port>
			</output>
		</layer>
		<layer id="56" name="convolution_2" precision="FP32" type="Convolution">
			<data dilations="1,1" group="1" kernel="3,3" output="256" pads_begin="1,1" pads_end="1,1" strides="2,2"/>
			<input>
				<port id="0">
					<dim>1</dim>
					<dim>128</dim>
					<dim>128</dim>
					<dim>128</dim>
				</port>
			</input>
			<output>
				<port id="2">
					<dim>1</dim>
					<dim>256</dim>
					<dim>64</dim>
					<dim>64</dim>
				</port>
			</output>
			<blobs>
				<weights offset="334848" size="1179648"/>
			</blobs>
		</layer>
		<layer id="57" name="convolution_2/Permute_2322" precision="FP32" type="Permute">
			<data order="0,2,3,1"/>
			<input>
				<port id="0">
					<dim>1</dim>
					<dim>256</dim>
					<dim>64</dim>
					<dim>64</dim>
				</port>
			</input>
			<output>
				<port id="1">
					<dim>1</dim>
					<dim>64</dim>
					<dim>64</dim>
					<dim>256</dim>
				</port>
			</output>
		</layer>
		<layer id="58" name="Const_11/Output_0/Data_/copy_const" precision="FP32" type="Const">
			<output>
				<port id="1">
					<dim>1</dim>
					<dim>1</dim>
					<dim>1</dim>
					<dim>256</dim>
				</port>
			</output>
			<blobs>
				<custom offset="1514496" size="1024"/>
			</blobs>
		</layer>
		<layer id="59" name="Add_2/Broadcast/" precision="FP32" type="Tile">
			<data axis="1" tiles="64"/>
			<input>
				<port id="0">
					<dim>1</dim>
					<dim>1</dim>
					<dim>1</dim>
					<dim>256</dim>
				</port>
			</input>
			<output>
				<port id="1">
					<dim>1</dim>
					<dim>64</dim>
					<dim>1</dim>
					<dim>256</dim>
				</port>
			</output>
		</layer>
		<layer id="60" name="Add_2/Broadcast/2729" precision="FP32" type="Tile">
			<data axis="2" tiles="64"/>
			<input>
				<port id="0">
					<dim>1</dim>
					<dim>64</dim>
					<dim>1</dim>
					<dim>256</dim>
				</port>
			</input>
			<output>
				<port id="1">
					<dim>1</dim>
					<dim>64</dim>
					<dim>64</dim>
					<dim>256</dim>
				</port>
			</output>
		</layer>
		<layer id="61" name="Add_2" precision="FP32" type="Eltwise">
			<data operation="sum"/>
			<input>
				<port id="0">
					<dim>1</dim>
					<dim>64</dim>
					<dim>64</dim>
					<dim>256</dim>
				</port>
				<port id="1">
					<dim>1</dim>
					<dim>64</dim>
					<dim>64</dim>
					<dim>256</dim>
				</port>
			</input>
			<output>
				<port id="2">
					<dim>1</dim>
					<dim>64</dim>
					<dim>64</dim>
					<dim>256</dim>
				</port>
			</output>
		</layer>
		<layer id="62" name="transpose_8" precision="FP32" type="Permute">
			<data order="0,3,1,2"/>
			<input>
				<port id="0">
					<dim>1</dim>
					<dim>64</dim>
					<dim>64</dim>
					<dim>256</dim>
				</port>
			</input>
			<output>
				<port id="1">
					<dim>1</dim>
					<dim>256</dim>
					<dim>64</dim>
					<dim>64</dim>
				</port>
			</output>
		</layer>
		<layer id="63" name="moments_2/mean" precision="FP32" type="Pooling">
			<data exclude-pad="true" kernel="64,64" pads_begin="0,0" pads_end="0,0" pool-method="avg" rounding-type="ceil" strides="1,1"/>
			<input>
				<port id="0">
					<dim>1</dim>
					<dim>256</dim>
					<dim>64</dim>
					<dim>64</dim>
				</port>
			</input>
			<output>
				<port id="1">
					<dim>1</dim>
					<dim>256</dim>
					<dim>1</dim>
					<dim>1</dim>
				</port>
			</output>
		</layer>
		<layer id="64" name="moments_2/SquaredDifference/negate_" precision="FP32" type="Power">
			<data power="1" scale="-1" shift="0"/>
			<input>
				<port id="0">
					<dim>1</dim>
					<dim>256</dim>
					<dim>1</dim>
					<dim>1</dim>
				</port>
			</input>
			<output>
				<port id="1">
					<dim>1</dim>
					<dim>256</dim>
					<dim>1</dim>
					<dim>1</dim>
				</port>
			</output>
		</layer>
		<layer id="65" name="moments_2/SquaredDifference/add_/Broadcast/" precision="FP32" type="Tile">
			<data axis="2" tiles="64"/>
			<input>
				<port id="0">
					<dim>1</dim>
					<dim>256</dim>
					<dim>1</dim>
					<dim>1</dim>
				</port>
			</input>
			<output>
				<port id="1">
					<dim>1</dim>
					<dim>256</dim>
					<dim>64</dim>
					<dim>1</dim>
				</port>
			</output>
		</layer>
		<layer id="66" name="moments_2/SquaredDifference/add_/Broadcast/2649" precision="FP32" type="Tile">
			<data axis="3" tiles="64"/>
			<input>
				<port id="0">
					<dim>1</dim>
					<dim>256</dim>
					<dim>64</dim>
					<dim>1</dim>
				</port>
			</input>
			<output>
				<port id="1">
					<dim>1</dim>
					<dim>256</dim>
					<dim>64</dim>
					<dim>64</dim>
				</port>
			</output>
		</layer>
		<layer id="67" name="moments_2/SquaredDifference/add_" precision="FP32" type="Eltwise">
			<data operation="sum"/>
			<input>
				<port id="0">
					<dim>1</dim>
					<dim>256</dim>
					<dim>64</dim>
					<dim>64</dim>
				</port>
				<port id="1">
					<dim>1</dim>
					<dim>256</dim>
					<dim>64</dim>
					<dim>64</dim>
				</port>
			</input>
			<output>
				<port id="2">
					<dim>1</dim>
					<dim>256</dim>
					<dim>64</dim>
					<dim>64</dim>
				</port>
			</output>
		</layer>
		<layer id="68" name="moments_2/SquaredDifference/squared_" precision="FP32" type="Power">
			<data power="2" scale="1" shift="0"/>
			<input>
				<port id="0">
					<dim>1</dim>
					<dim>256</dim>
					<dim>64</dim>
					<dim>64</dim>
				</port>
			</input>
			<output>
				<port id="1">
					<dim>1</dim>
					<dim>256</dim>
					<dim>64</dim>
					<dim>64</dim>
				</port>
			</output>
		</layer>
		<layer id="69" name="moments_2/variance" precision="FP32" type="Pooling">
			<data exclude-pad="true" kernel="64,64" pads_begin="0,0" pads_end="0,0" pool-method="avg" rounding-type="ceil" strides="1,1"/>
			<input>
				<port id="0">
					<dim>1</dim>
					<dim>256</dim>
					<dim>64</dim>
					<dim>64</dim>
				</port>
			</input>
			<output>
				<port id="1">
					<dim>1</dim>
					<dim>256</dim>
					<dim>1</dim>
					<dim>1</dim>
				</port>
			</output>
		</layer>
		<layer id="70" name="instancenorm_2/add" precision="FP32" type="Power">
			<data power="1" scale="1" shift="9.999999747378752e-06"/>
			<input>
				<port id="0">
					<dim>1</dim>
					<dim>256</dim>
					<dim>1</dim>
					<dim>1</dim>
				</port>
			</input>
			<output>
				<port id="1">
					<dim>1</dim>
					<dim>256</dim>
					<dim>1</dim>
					<dim>1</dim>
				</port>
			</output>
		</layer>
		<layer id="71" name="instancenorm_2/Rsqrt" precision="FP32" type="Power">
			<data power="-0.5" scale="1" shift="0"/>
			<input>
				<port id="0">
					<dim>1</dim>
					<dim>256</dim>
					<dim>1</dim>
					<dim>1</dim>
				</port>
			</input>
			<output>
				<port id="1">
					<dim>1</dim>
					<dim>256</dim>
					<dim>1</dim>
					<dim>1</dim>
				</port>
			</output>
		</layer>
		<layer id="72" name="instancenorm_2/mul" precision="FP32" type="ScaleShift">
			<input>
				<port id="0">
					<dim>1</dim>
					<dim>256</dim>
					<dim>1</dim>
					<dim>1</dim>
				</port>
			</input>
			<output>
				<port id="3">
					<dim>1</dim>
					<dim>256</dim>
					<dim>1</dim>
					<dim>1</dim>
				</port>
			</output>
			<blobs>
				<weights offset="1515520" size="1024"/>
				<biases offset="1516544" size="1024"/>
			</blobs>
		</layer>
		<layer id="73" name="instancenorm_2/mul_1/Broadcast/" precision="FP32" type="Tile">
			<data axis="2" tiles="64"/>
			<input>
				<port id="0">
					<dim>1</dim>
					<dim>256</dim>
					<dim>1</dim>
					<dim>1</dim>
				</port>
			</input>
			<output>
				<port id="1">
					<dim>1</dim>
					<dim>256</dim>
					<dim>64</dim>
					<dim>1</dim>
				</port>
			</output>
		</layer>
		<layer id="74" name="instancenorm_2/mul_1/Broadcast/2417" precision="FP32" type="Tile">
			<data axis="3" tiles="64"/>
			<input>
				<port id="0">
					<dim>1</dim>
					<dim>256</dim>
					<dim>64</dim>
					<dim>1</dim>
				</port>
			</input>
			<output>
				<port id="1">
					<dim>1</dim>
					<dim>256</dim>
					<dim>64</dim>
					<dim>64</dim>
				</port>
			</output>
		</layer>
		<layer id="75" name="instancenorm_2/mul_1" precision="FP32" type="Eltwise">
			<data operation="mul"/>
			<input>
				<port id="0">
					<dim>1</dim>
					<dim>256</dim>
					<dim>64</dim>
					<dim>64</dim>
				</port>
				<port id="1">
					<dim>1</dim>
					<dim>256</dim>
					<dim>64</dim>
					<dim>64</dim>
				</port>
			</input>
			<output>
				<port id="2">
					<dim>1</dim>
					<dim>256</dim>
					<dim>64</dim>
					<dim>64</dim>
				</port>
			</output>
		</layer>
		<layer id="76" name="instancenorm_2/mul_2" precision="FP32" type="Eltwise">
			<data operation="mul"/>
			<input>
				<port id="0">
					<dim>1</dim>
					<dim>256</dim>
					<dim>1</dim>
					<dim>1</dim>
				</port>
				<port id="1">
					<dim>1</dim>
					<dim>256</dim>
					<dim>1</dim>
					<dim>1</dim>
				</port>
			</input>
			<output>
				<port id="2">
					<dim>1</dim>
					<dim>256</dim>
					<dim>1</dim>
					<dim>1</dim>
				</port>
			</output>
		</layer>
		<layer id="77" name="instancenorm_2/sub/negate_" precision="FP32" type="Power">
			<data power="1" scale="-1" shift="0"/>
			<input>
				<port id="0">
					<dim>1</dim>
					<dim>256</dim>
					<dim>1</dim>
					<dim>1</dim>
				</port>
			</input>
			<output>
				<port id="1">
					<dim>1</dim>
					<dim>256</dim>
					<dim>1</dim>
					<dim>1</dim>
				</port>
			</output>
		</layer>
		<layer id="78" name="instancenorm_2/sub/add_" precision="FP32" type="ScaleShift">
			<input>
				<port id="0">
					<dim>1</dim>
					<dim>256</dim>
					<dim>1</dim>
					<dim>1</dim>
				</port>
			</input>
			<output>
				<port id="3">
					<dim>1</dim>
					<dim>256</dim>
					<dim>1</dim>
					<dim>1</dim>
				</port>
			</output>
			<blobs>
				<weights offset="1515520" size="1024"/>
				<biases offset="1516544" size="1024"/>
			</blobs>
		</layer>
		<layer id="79" name="instancenorm_2/add_1/Broadcast/" precision="FP32" type="Tile">
			<data axis="2" tiles="64"/>
			<input>
				<port id="0">
					<dim>1</dim>
					<dim>256</dim>
					<dim>1</dim>
					<dim>1</dim>
				</port>
			</input>
			<output>
				<port id="1">
					<dim>1</dim>
					<dim>256</dim>
					<dim>64</dim>
					<dim>1</dim>
				</port>
			</output>
		</layer>
		<layer id="80" name="instancenorm_2/add_1/Broadcast/2669" precision="FP32" type="Tile">
			<data axis="3" tiles="64"/>
			<input>
				<port id="0">
					<dim>1</dim>
					<dim>256</dim>
					<dim>64</dim>
					<dim>1</dim>
				</port>
			</input>
			<output>
				<port id="1">
					<dim>1</dim>
					<dim>256</dim>
					<dim>64</dim>
					<dim>64</dim>
				</port>
			</output>
		</layer>
		<layer id="81" name="instancenorm_2/add_1" precision="FP32" type="Eltwise">
			<data operation="sum"/>
			<input>
				<port id="0">
					<dim>1</dim>
					<dim>256</dim>
					<dim>64</dim>
					<dim>64</dim>
				</port>
				<port id="1">
					<dim>1</dim>
					<dim>256</dim>
					<dim>64</dim>
					<dim>64</dim>
				</port>
			</input>
			<output>
				<port id="2">
					<dim>1</dim>
					<dim>256</dim>
					<dim>64</dim>
					<dim>64</dim>
				</port>
			</output>
		</layer>
		<layer id="82" name="Relu_2" precision="FP32" type="ReLU">
			<input>
				<port id="0">
					<dim>1</dim>
					<dim>256</dim>
					<dim>64</dim>
					<dim>64</dim>
				</port>
			</input>
			<output>
				<port id="1">
					<dim>1</dim>
					<dim>256</dim>
					<dim>64</dim>
					<dim>64</dim>
				</port>
			</output>
		</layer>
		<layer id="83" name="MirrorPad_1" precision="FP32" type="Pad">
			<data pad_mode="reflect" pad_value="0.0" pads_begin="0,0,1,1" pads_end="0,0,1,1"/>
			<input>
				<port id="0">
					<dim>1</dim>
					<dim>256</dim>
					<dim>64</dim>
					<dim>64</dim>
				</port>
			</input>
			<output>
				<port id="1">
					<dim>1</dim>
					<dim>256</dim>
					<dim>66</dim>
					<dim>66</dim>
				</port>
			</output>
		</layer>
		<layer id="84" name="convolution_3" precision="FP32" type="Convolution">
			<data auto_pad="valid" dilations="1,1" group="1" kernel="3,3" output="256" pads_begin="0,0" pads_end="0,0" strides="1,1"/>
			<input>
				<port id="0">
					<dim>1</dim>
					<dim>256</dim>
					<dim>66</dim>
					<dim>66</dim>
				</port>
			</input>
			<output>
				<port id="2">
					<dim>1</dim>
					<dim>256</dim>
					<dim>64</dim>
					<dim>64</dim>
				</port>
			</output>
			<blobs>
				<weights offset="1517568" size="2359296"/>
			</blobs>
		</layer>
		<layer id="85" name="convolution_3/Permute_2318" precision="FP32" type="Permute">
			<data order="0,2,3,1"/>
			<input>
				<port id="0">
					<dim>1</dim>
					<dim>256</dim>
					<dim>64</dim>
					<dim>64</dim>
				</port>
			</input>
			<output>
				<port id="1">
					<dim>1</dim>
					<dim>64</dim>
					<dim>64</dim>
					<dim>256</dim>
				</port>
			</output>
		</layer>
		<layer id="86" name="Const_16/Output_0/Data_/copy_const" precision="FP32" type="Const">
			<output>
				<port id="1">
					<dim>1</dim>
					<dim>1</dim>
					<dim>1</dim>
					<dim>256</dim>
				</port>
			</output>
			<blobs>
				<custom offset="3876864" size="1024"/>
			</blobs>
		</layer>
		<layer id="87" name="Add_3/Broadcast/" precision="FP32" type="Tile">
			<data axis="1" tiles="64"/>
			<input>
				<port id="0">
					<dim>1</dim>
					<dim>1</dim>
					<dim>1</dim>
					<dim>256</dim>
				</port>
			</input>
			<output>
				<port id="1">
					<dim>1</dim>
					<dim>64</dim>
					<dim>1</dim>
					<dim>256</dim>
				</port>
			</output>
		</layer>
		<layer id="88" name="Add_3/Broadcast/2401" precision="FP32" type="Tile">
			<data axis="2" tiles="64"/>
			<input>
				<port id="0">
					<dim>1</dim>
					<dim>64</dim>
					<dim>1</dim>
					<dim>256</dim>
				</port>
			</input>
			<output>
				<port id="1">
					<dim>1</dim>
					<dim>64</dim>
					<dim>64</dim>
					<dim>256</dim>
				</port>
			</output>
		</layer>
		<layer id="89" name="Add_3" precision="FP32" type="Eltwise">
			<data operation="sum"/>
			<input>
				<port id="0">
					<dim>1</dim>
					<dim>64</dim>
					<dim>64</dim>
					<dim>256</dim>
				</port>
				<port id="1">
					<dim>1</dim>
					<dim>64</dim>
					<dim>64</dim>
					<dim>256</dim>
				</port>
			</input>
			<output>
				<port id="2">
					<dim>1</dim>
					<dim>64</dim>
					<dim>64</dim>
					<dim>256</dim>
				</port>
			</output>
		</layer>
		<layer id="90" name="transpose_11" precision="FP32" type="Permute">
			<data order="0,3,1,2"/>
			<input>
				<port id="0">
					<dim>1</dim>
					<dim>64</dim>
					<dim>64</dim>
					<dim>256</dim>
				</port>
			</input>
			<output>
				<port id="1">
					<dim>1</dim>
					<dim>256</dim>
					<dim>64</dim>
					<dim>64</dim>
				</port>
			</output>
		</layer>
		<layer id="91" name="moments_3/mean" precision="FP32" type="Pooling">
			<data exclude-pad="true" kernel="64,64" pads_begin="0,0" pads_end="0,0" pool-method="avg" rounding-type="ceil" strides="1,1"/>
			<input>
				<port id="0">
					<dim>1</dim>
					<dim>256</dim>
					<dim>64</dim>
					<dim>64</dim>
				</port>
			</input>
			<output>
				<port id="1">
					<dim>1</dim>
					<dim>256</dim>
					<dim>1</dim>
					<dim>1</dim>
				</port>
			</output>
		</layer>
		<layer id="92" name="moments_3/SquaredDifference/negate_" precision="FP32" type="Power">
			<data power="1" scale="-1" shift="0"/>
			<input>
				<port id="0">
					<dim>1</dim>
					<dim>256</dim>
					<dim>1</dim>
					<dim>1</dim>
				</port>
			</input>
			<output>
				<port id="1">
					<dim>1</dim>
					<dim>256</dim>
					<dim>1</dim>
					<dim>1</dim>
				</port>
			</output>
		</layer>
		<layer id="93" name="moments_3/SquaredDifference/add_/Broadcast/" precision="FP32" type="Tile">
			<data axis="2" tiles="64"/>
			<input>
				<port id="0">
					<dim>1</dim>
					<dim>256</dim>
					<dim>1</dim>
					<dim>1</dim>
				</port>
			</input>
			<output>
				<port id="1">
					<dim>1</dim>
					<dim>256</dim>
					<dim>64</dim>
					<dim>1</dim>
				</port>
			</output>
		</layer>
		<layer id="94" name="moments_3/SquaredDifference/add_/Broadcast/2717" precision="FP32" type="Tile">
			<data axis="3" tiles="64"/>
			<input>
				<port id="0">
					<dim>1</dim>
					<dim>256</dim>
					<dim>64</dim>
					<dim>1</dim>
				</port>
			</input>
			<output>
				<port id="1">
					<dim>1</dim>
					<dim>256</dim>
					<dim>64</dim>
					<dim>64</dim>
				</port>
			</output>
		</layer>
		<layer id="95" name="moments_3/SquaredDifference/add_" precision="FP32" type="Eltwise">
			<data operation="sum"/>
			<input>
				<port id="0">
					<dim>1</dim>
					<dim>256</dim>
					<dim>64</dim>
					<dim>64</dim>
				</port>
				<port id="1">
					<dim>1</dim>
					<dim>256</dim>
					<dim>64</dim>
					<dim>64</dim>
				</port>
			</input>
			<output>
				<port id="2">
					<dim>1</dim>
					<dim>256</dim>
					<dim>64</dim>
					<dim>64</dim>
				</port>
			</output>
		</layer>
		<layer id="96" name="moments_3/SquaredDifference/squared_" precision="FP32" type="Power">
			<data power="2" scale="1" shift="0"/>
			<input>
				<port id="0">
					<dim>1</dim>
					<dim>256</dim>
					<dim>64</dim>
					<dim>64</dim>
				</port>
			</input>
			<output>
				<port id="1">
					<dim>1</dim>
					<dim>256</dim>
					<dim>64</dim>
					<dim>64</dim>
				</port>
			</output>
		</layer>
		<layer id="97" name="moments_3/variance" precision="FP32" type="Pooling">
			<data exclude-pad="true" kernel="64,64" pads_begin="0,0" pads_end="0,0" pool-method="avg" rounding-type="ceil" strides="1,1"/>
			<input>
				<port id="0">
					<dim>1</dim>
					<dim>256</dim>
					<dim>64</dim>
					<dim>64</dim>
				</port>
			</input>
			<output>
				<port id="1">
					<dim>1</dim>
					<dim>256</dim>
					<dim>1</dim>
					<dim>1</dim>
				</port>
			</output>
		</layer>
		<layer id="98" name="instancenorm_3/add" precision="FP32" type="Power">
			<data power="1" scale="1" shift="9.999999747378752e-06"/>
			<input>
				<port id="0">
					<dim>1</dim>
					<dim>256</dim>
					<dim>1</dim>
					<dim>1</dim>
				</port>
			</input>
			<output>
				<port id="1">
					<dim>1</dim>
					<dim>256</dim>
					<dim>1</dim>
					<dim>1</dim>
				</port>
			</output>
		</layer>
		<layer id="99" name="instancenorm_3/Rsqrt" precision="FP32" type="Power">
			<data power="-0.5" scale="1" shift="0"/>
			<input>
				<port id="0">
					<dim>1</dim>
					<dim>256</dim>
					<dim>1</dim>
					<dim>1</dim>
				</port>
			</input>
			<output>
				<port id="1">
					<dim>1</dim>
					<dim>256</dim>
					<dim>1</dim>
					<dim>1</dim>
				</port>
			</output>
		</layer>
		<layer id="100" name="instancenorm_3/mul" precision="FP32" type="ScaleShift">
			<input>
				<port id="0">
					<dim>1</dim>
					<dim>256</dim>
					<dim>1</dim>
					<dim>1</dim>
				</port>
			</input>
			<output>
				<port id="3">
					<dim>1</dim>
					<dim>256</dim>
					<dim>1</dim>
					<dim>1</dim>
				</port>
			</output>
			<blobs>
				<weights offset="1515520" size="1024"/>
				<biases offset="1516544" size="1024"/>
			</blobs>
		</layer>
		<layer id="101" name="instancenorm_3/mul_1/Broadcast/" precision="FP32" type="Tile">
			<data axis="2" tiles="64"/>
			<input>
				<port id="0">
					<dim>1</dim>
					<dim>256</dim>
					<dim>1</dim>
					<dim>1</dim>
				</port>
			</input>
			<output>
				<port id="1">
					<dim>1</dim>
					<dim>256</dim>
					<dim>64</dim>
					<dim>1</dim>
				</port>
			</output>
		</layer>
		<layer id="102" name="instancenorm_3/mul_1/Broadcast/2537" precision="FP32" type="Tile">
			<data axis="3" tiles="64"/>
			<input>
				<port id="0">
					<dim>1</dim>
					<dim>256</dim>
					<dim>64</dim>
					<dim>1</dim>
				</port>
			</input>
			<output>
				<port id="1">
					<dim>1</dim>
					<dim>256</dim>
					<dim>64</dim>
					<dim>64</dim>
				</port>
			</output>
		</layer>
		<layer id="103" name="instancenorm_3/mul_1" precision="FP32" type="Eltwise">
			<data operation="mul"/>
			<input>
				<port id="0">
					<dim>1</dim>
					<dim>256</dim>
					<dim>64</dim>
					<dim>64</dim>
				</port>
				<port id="1">
					<dim>1</dim>
					<dim>256</dim>
					<dim>64</dim>
					<dim>64</dim>
				</port>
			</input>
			<output>
				<port id="2">
					<dim>1</dim>
					<dim>256</dim>
					<dim>64</dim>
					<dim>64</dim>
				</port>
			</output>
		</layer>
		<layer id="104" name="instancenorm_3/mul_2" precision="FP32" type="Eltwise">
			<data operation="mul"/>
			<input>
				<port id="0">
					<dim>1</dim>
					<dim>256</dim>
					<dim>1</dim>
					<dim>1</dim>
				</port>
				<port id="1">
					<dim>1</dim>
					<dim>256</dim>
					<dim>1</dim>
					<dim>1</dim>
				</port>
			</input>
			<output>
				<port id="2">
					<dim>1</dim>
					<dim>256</dim>
					<dim>1</dim>
					<dim>1</dim>
				</port>
			</output>
		</layer>
		<layer id="105" name="instancenorm_3/sub/negate_" precision="FP32" type="Power">
			<data power="1" scale="-1" shift="0"/>
			<input>
				<port id="0">
					<dim>1</dim>
					<dim>256</dim>
					<dim>1</dim>
					<dim>1</dim>
				</port>
			</input>
			<output>
				<port id="1">
					<dim>1</dim>
					<dim>256</dim>
					<dim>1</dim>
					<dim>1</dim>
				</port>
			</output>
		</layer>
		<layer id="106" name="instancenorm_3/sub/add_" precision="FP32" type="ScaleShift">
			<input>
				<port id="0">
					<dim>1</dim>
					<dim>256</dim>
					<dim>1</dim>
					<dim>1</dim>
				</port>
			</input>
			<output>
				<port id="3">
					<dim>1</dim>
					<dim>256</dim>
					<dim>1</dim>
					<dim>1</dim>
				</port>
			</output>
			<blobs>
				<weights offset="1515520" size="1024"/>
				<biases offset="1516544" size="1024"/>
			</blobs>
		</layer>
		<layer id="107" name="instancenorm_3/add_1/Broadcast/" precision="FP32" type="Tile">
			<data axis="2" tiles="64"/>
			<input>
				<port id="0">
					<dim>1</dim>
					<dim>256</dim>
					<dim>1</dim>
					<dim>1</dim>
				</port>
			</input>
			<output>
				<port id="1">
					<dim>1</dim>
					<dim>256</dim>
					<dim>64</dim>
					<dim>1</dim>
				</port>
			</output>
		</layer>
		<layer id="108" name="instancenorm_3/add_1/Broadcast/2689" precision="FP32" type="Tile">
			<data axis="3" tiles="64"/>
			<input>
				<port id="0">
					<dim>1</dim>
					<dim>256</dim>
					<dim>64</dim>
					<dim>1</dim>
				</port>
			</input>
			<output>
				<port id="1">
					<dim>1</dim>
					<dim>256</dim>
					<dim>64</dim>
					<dim>64</dim>
				</port>
			</output>
		</layer>
		<layer id="109" name="instancenorm_3/add_1" precision="FP32" type="Eltwise">
			<data operation="sum"/>
			<input>
				<port id="0">
					<dim>1</dim>
					<dim>256</dim>
					<dim>64</dim>
					<dim>64</dim>
				</port>
				<port id="1">
					<dim>1</dim>
					<dim>256</dim>
					<dim>64</dim>
					<dim>64</dim>
				</port>
			</input>
			<output>
				<port id="2">
					<dim>1</dim>
					<dim>256</dim>
					<dim>64</dim>
					<dim>64</dim>
				</port>
			</output>
		</layer>
		<layer id="110" name="Relu_3" precision="FP32" type="ReLU">
			<input>
				<port id="0">
					<dim>1</dim>
					<dim>256</dim>
					<dim>64</dim>
					<dim>64</dim>
				</port>
			</input>
			<output>
				<port id="1">
					<dim>1</dim>
					<dim>256</dim>
					<dim>64</dim>
					<dim>64</dim>
				</port>
			</output>
		</layer>
		<layer id="111" name="MirrorPad_2" precision="FP32" type="Pad">
			<data pad_mode="reflect" pad_value="0.0" pads_begin="0,0,1,1" pads_end="0,0,1,1"/>
			<input>
				<port id="0">
					<dim>1</dim>
					<dim>256</dim>
					<dim>64</dim>
					<dim>64</dim>
				</port>
			</input>
			<output>
				<port id="1">
					<dim>1</dim>
					<dim>256</dim>
					<dim>66</dim>
					<dim>66</dim>
				</port>
			</output>
		</layer>
		<layer id="112" name="convolution_4" precision="FP32" type="Convolution">
			<data auto_pad="valid" dilations="1,1" group="1" kernel="3,3" output="256" pads_begin="0,0" pads_end="0,0" strides="1,1"/>
			<input>
				<port id="0">
					<dim>1</dim>
					<dim>256</dim>
					<dim>66</dim>
					<dim>66</dim>
				</port>
			</input>
			<output>
				<port id="2">
					<dim>1</dim>
					<dim>256</dim>
					<dim>64</dim>
					<dim>64</dim>
				</port>
			</output>
			<blobs>
				<weights offset="3877888" size="2359296"/>
			</blobs>
		</layer>
		<layer id="113" name="convolution_4/Permute_2254" precision="FP32" type="Permute">
			<data order="0,2,3,1"/>
			<input>
				<port id="0">
					<dim>1</dim>
					<dim>256</dim>
					<dim>64</dim>
					<dim>64</dim>
				</port>
			</input>
			<output>
				<port id="1">
					<dim>1</dim>
					<dim>64</dim>
					<dim>64</dim>
					<dim>256</dim>
				</port>
			</output>
		</layer>
		<layer id="114" name="Const_21/Output_0/Data_/copy_const" precision="FP32" type="Const">
			<output>
				<port id="1">
					<dim>1</dim>
					<dim>1</dim>
					<dim>1</dim>
					<dim>256</dim>
				</port>
			</output>
			<blobs>
				<custom offset="6237184" size="1024"/>
			</blobs>
		</layer>
		<layer id="115" name="Add_4/Broadcast/" precision="FP32" type="Tile">
			<data axis="1" tiles="64"/>
			<input>
				<port id="0">
					<dim>1</dim>
					<dim>1</dim>
					<dim>1</dim>
					<dim>256</dim>
				</port>
			</input>
			<output>
				<port id="1">
					<dim>1</dim>
					<dim>64</dim>
					<dim>1</dim>
					<dim>256</dim>
				</port>
			</output>
		</layer>
		<layer id="116" name="Add_4/Broadcast/2449" precision="FP32" type="Tile">
			<data axis="2" tiles="64"/>
			<input>
				<port id="0">
					<dim>1</dim>
					<dim>64</dim>
					<dim>1</dim>
					<dim>256</dim>
				</port>
			</input>
			<output>
				<port id="1">
					<dim>1</dim>
					<dim>64</dim>
					<dim>64</dim>
					<dim>256</dim>
				</port>
			</output>
		</layer>
		<layer id="117" name="Add_4" precision="FP32" type="Eltwise">
			<data operation="sum"/>
			<input>
				<port id="0">
					<dim>1</dim>
					<dim>64</dim>
					<dim>64</dim>
					<dim>256</dim>
				</port>
				<port id="1">
					<dim>1</dim>
					<dim>64</dim>
					<dim>64</dim>
					<dim>256</dim>
				</port>
			</input>
			<output>
				<port id="2">
					<dim>1</dim>
					<dim>64</dim>
					<dim>64</dim>
					<dim>256</dim>
				</port>
			</output>
		</layer>
		<layer id="118" name="transpose_14" precision="FP32" type="Permute">
			<data order="0,3,1,2"/>
			<input>
				<port id="0">
					<dim>1</dim>
					<dim>64</dim>
					<dim>64</dim>
					<dim>256</dim>
				</port>
			</input>
			<output>
				<port id="1">
					<dim>1</dim>
					<dim>256</dim>
					<dim>64</dim>
					<dim>64</dim>
				</port>
			</output>
		</layer>
		<layer id="119" name="moments_4/mean" precision="FP32" type="Pooling">
			<data exclude-pad="true" kernel="64,64" pads_begin="0,0" pads_end="0,0" pool-method="avg" rounding-type="ceil" strides="1,1"/>
			<input>
				<port id="0">
					<dim>1</dim>
					<dim>256</dim>
					<dim>64</dim>
					<dim>64</dim>
				</port>
			</input>
			<output>
				<port id="1">
					<dim>1</dim>
					<dim>256</dim>
					<dim>1</dim>
					<dim>1</dim>
				</port>
			</output>
		</layer>
		<layer id="120" name="moments_4/SquaredDifference/negate_" precision="FP32" type="Power">
			<data power="1" scale="-1" shift="0"/>
			<input>
				<port id="0">
					<dim>1</dim>
					<dim>256</dim>
					<dim>1</dim>
					<dim>1</dim>
				</port>
			</input>
			<output>
				<port id="1">
					<dim>1</dim>
					<dim>256</dim>
					<dim>1</dim>
					<dim>1</dim>
				</port>
			</output>
		</layer>
		<layer id="121" name="moments_4/SquaredDifference/add_/Broadcast/" precision="FP32" type="Tile">
			<data axis="2" tiles="64"/>
			<input>
				<port id="0">
					<dim>1</dim>
					<dim>256</dim>
					<dim>1</dim>
					<dim>1</dim>
				</port>
			</input>
			<output>
				<port id="1">
					<dim>1</dim>
					<dim>256</dim>
					<dim>64</dim>
					<dim>1</dim>
				</port>
			</output>
		</layer>
		<layer id="122" name="moments_4/SquaredDifference/add_/Broadcast/2629" precision="FP32" type="Tile">
			<data axis="3" tiles="64"/>
			<input>
				<port id="0">
					<dim>1</dim>
					<dim>256</dim>
					<dim>64</dim>
					<dim>1</dim>
				</port>
			</input>
			<output>
				<port id="1">
					<dim>1</dim>
					<dim>256</dim>
					<dim>64</dim>
					<dim>64</dim>
				</port>
			</output>
		</layer>
		<layer id="123" name="moments_4/SquaredDifference/add_" precision="FP32" type="Eltwise">
			<data operation="sum"/>
			<input>
				<port id="0">
					<dim>1</dim>
					<dim>256</dim>
					<dim>64</dim>
					<dim>64</dim>
				</port>
				<port id="1">
					<dim>1</dim>
					<dim>256</dim>
					<dim>64</dim>
					<dim>64</dim>
				</port>
			</input>
			<output>
				<port id="2">
					<dim>1</dim>
					<dim>256</dim>
					<dim>64</dim>
					<dim>64</dim>
				</port>
			</output>
		</layer>
		<layer id="124" name="moments_4/SquaredDifference/squared_" precision="FP32" type="Power">
			<data power="2" scale="1" shift="0"/>
			<input>
				<port id="0">
					<dim>1</dim>
					<dim>256</dim>
					<dim>64</dim>
					<dim>64</dim>
				</port>
			</input>
			<output>
				<port id="1">
					<dim>1</dim>
					<dim>256</dim>
					<dim>64</dim>
					<dim>64</dim>
				</port>
			</output>
		</layer>
		<layer id="125" name="moments_4/variance" precision="FP32" type="Pooling">
			<data exclude-pad="true" kernel="64,64" pads_begin="0,0" pads_end="0,0" pool-method="avg" rounding-type="ceil" strides="1,1"/>
			<input>
				<port id="0">
					<dim>1</dim>
					<dim>256</dim>
					<dim>64</dim>
					<dim>64</dim>
				</port>
			</input>
			<output>
				<port id="1">
					<dim>1</dim>
					<dim>256</dim>
					<dim>1</dim>
					<dim>1</dim>
				</port>
			</output>
		</layer>
		<layer id="126" name="instancenorm_4/add" precision="FP32" type="Power">
			<data power="1" scale="1" shift="9.999999747378752e-06"/>
			<input>
				<port id="0">
					<dim>1</dim>
					<dim>256</dim>
					<dim>1</dim>
					<dim>1</dim>
				</port>
			</input>
			<output>
				<port id="1">
					<dim>1</dim>
					<dim>256</dim>
					<dim>1</dim>
					<dim>1</dim>
				</port>
			</output>
		</layer>
		<layer id="127" name="instancenorm_4/Rsqrt" precision="FP32" type="Power">
			<data power="-0.5" scale="1" shift="0"/>
			<input>
				<port id="0">
					<dim>1</dim>
					<dim>256</dim>
					<dim>1</dim>
					<dim>1</dim>
				</port>
			</input>
			<output>
				<port id="1">
					<dim>1</dim>
					<dim>256</dim>
					<dim>1</dim>
					<dim>1</dim>
				</port>
			</output>
		</layer>
		<layer id="128" name="instancenorm_4/mul" precision="FP32" type="ScaleShift">
			<input>
				<port id="0">
					<dim>1</dim>
					<dim>256</dim>
					<dim>1</dim>
					<dim>1</dim>
				</port>
			</input>
			<output>
				<port id="3">
					<dim>1</dim>
					<dim>256</dim>
					<dim>1</dim>
					<dim>1</dim>
				</port>
			</output>
			<blobs>
				<weights offset="1515520" size="1024"/>
				<biases offset="1516544" size="1024"/>
			</blobs>
		</layer>
		<layer id="129" name="instancenorm_4/mul_1/Broadcast/" precision="FP32" type="Tile">
			<data axis="2" tiles="64"/>
			<input>
				<port id="0">
					<dim>1</dim>
					<dim>256</dim>
					<dim>1</dim>
					<dim>1</dim>
				</port>
			</input>
			<output>
				<port id="1">
					<dim>1</dim>
					<dim>256</dim>
					<dim>64</dim>
					<dim>1</dim>
				</port>
			</output>
		</layer>
		<layer id="130" name="instancenorm_4/mul_1/Broadcast/2697" precision="FP32" type="Tile">
			<data axis="3" tiles="64"/>
			<input>
				<port id="0">
					<dim>1</dim>
					<dim>256</dim>
					<dim>64</dim>
					<dim>1</dim>
				</port>
			</input>
			<output>
				<port id="1">
					<dim>1</dim>
					<dim>256</dim>
					<dim>64</dim>
					<dim>64</dim>
				</port>
			</output>
		</layer>
		<layer id="131" name="instancenorm_4/mul_1" precision="FP32" type="Eltwise">
			<data operation="mul"/>
			<input>
				<port id="0">
					<dim>1</dim>
					<dim>256</dim>
					<dim>64</dim>
					<dim>64</dim>
				</port>
				<port id="1">
					<dim>1</dim>
					<dim>256</dim>
					<dim>64</dim>
					<dim>64</dim>
				</port>
			</input>
			<output>
				<port id="2">
					<dim>1</dim>
					<dim>256</dim>
					<dim>64</dim>
					<dim>64</dim>
				</port>
			</output>
		</layer>
		<layer id="132" name="instancenorm_4/mul_2" precision="FP32" type="Eltwise">
			<data operation="mul"/>
			<input>
				<port id="0">
					<dim>1</dim>
					<dim>256</dim>
					<dim>1</dim>
					<dim>1</dim>
				</port>
				<port id="1">
					<dim>1</dim>
					<dim>256</dim>
					<dim>1</dim>
					<dim>1</dim>
				</port>
			</input>
			<output>
				<port id="2">
					<dim>1</dim>
					<dim>256</dim>
					<dim>1</dim>
					<dim>1</dim>
				</port>
			</output>
		</layer>
		<layer id="133" name="instancenorm_4/sub/negate_" precision="FP32" type="Power">
			<data power="1" scale="-1" shift="0"/>
			<input>
				<port id="0">
					<dim>1</dim>
					<dim>256</dim>
					<dim>1</dim>
					<dim>1</dim>
				</port>
			</input>
			<output>
				<port id="1">
					<dim>1</dim>
					<dim>256</dim>
					<dim>1</dim>
					<dim>1</dim>
				</port>
			</output>
		</layer>
		<layer id="134" name="instancenorm_4/sub/add_" precision="FP32" type="ScaleShift">
			<input>
				<port id="0">
					<dim>1</dim>
					<dim>256</dim>
					<dim>1</dim>
					<dim>1</dim>
				</port>
			</input>
			<output>
				<port id="3">
					<dim>1</dim>
					<dim>256</dim>
					<dim>1</dim>
					<dim>1</dim>
				</port>
			</output>
			<blobs>
				<weights offset="1515520" size="1024"/>
				<biases offset="1516544" size="1024"/>
			</blobs>
		</layer>
		<layer id="135" name="instancenorm_4/add_1/Broadcast/" precision="FP32" type="Tile">
			<data axis="2" tiles="64"/>
			<input>
				<port id="0">
					<dim>1</dim>
					<dim>256</dim>
					<dim>1</dim>
					<dim>1</dim>
				</port>
			</input>
			<output>
				<port id="1">
					<dim>1</dim>
					<dim>256</dim>
					<dim>64</dim>
					<dim>1</dim>
				</port>
			</output>
		</layer>
		<layer id="136" name="instancenorm_4/add_1/Broadcast/2713" precision="FP32" type="Tile">
			<data axis="3" tiles="64"/>
			<input>
				<port id="0">
					<dim>1</dim>
					<dim>256</dim>
					<dim>64</dim>
					<dim>1</dim>
				</port>
			</input>
			<output>
				<port id="1">
					<dim>1</dim>
					<dim>256</dim>
					<dim>64</dim>
					<dim>64</dim>
				</port>
			</output>
		</layer>
		<layer id="137" name="instancenorm_4/add_1" precision="FP32" type="Eltwise">
			<data operation="sum"/>
			<input>
				<port id="0">
					<dim>1</dim>
					<dim>256</dim>
					<dim>64</dim>
					<dim>64</dim>
				</port>
				<port id="1">
					<dim>1</dim>
					<dim>256</dim>
					<dim>64</dim>
					<dim>64</dim>
				</port>
			</input>
			<output>
				<port id="2">
					<dim>1</dim>
					<dim>256</dim>
					<dim>64</dim>
					<dim>64</dim>
				</port>
			</output>
		</layer>
		<layer id="138" name="Add_5" precision="FP32" type="Eltwise">
			<data operation="sum"/>
			<input>
				<port id="0">
					<dim>1</dim>
					<dim>256</dim>
					<dim>64</dim>
					<dim>64</dim>
				</port>
				<port id="1">
					<dim>1</dim>
					<dim>256</dim>
					<dim>64</dim>
					<dim>64</dim>
				</port>
			</input>
			<output>
				<port id="2">
					<dim>1</dim>
					<dim>256</dim>
					<dim>64</dim>
					<dim>64</dim>
				</port>
			</output>
		</layer>
		<layer id="139" name="MirrorPad_3" precision="FP32" type="Pad">
			<data pad_mode="reflect" pad_value="0.0" pads_begin="0,0,1,1" pads_end="0,0,1,1"/>
			<input>
				<port id="0">
					<dim>1</dim>
					<dim>256</dim>
					<dim>64</dim>
					<dim>64</dim>
				</port>
			</input>
			<output>
				<port id="1">
					<dim>1</dim>
					<dim>256</dim>
					<dim>66</dim>
					<dim>66</dim>
				</port>
			</output>
		</layer>
		<layer id="140" name="convolution_5" precision="FP32" type="Convolution">
			<data auto_pad="valid" dilations="1,1" group="1" kernel="3,3" output="256" pads_begin="0,0" pads_end="0,0" strides="1,1"/>
			<input>
				<port id="0">
					<dim>1</dim>
					<dim>256</dim>
					<dim>66</dim>
					<dim>66</dim>
				</port>
			</input>
			<output>
				<port id="2">
					<dim>1</dim>
					<dim>256</dim>
					<dim>64</dim>
					<dim>64</dim>
				</port>
			</output>
			<blobs>
				<weights offset="6238208" size="2359296"/>
			</blobs>
		</layer>
		<layer id="141" name="convolution_5/Permute_2274" precision="FP32" type="Permute">
			<data order="0,2,3,1"/>
			<input>
				<port id="0">
					<dim>1</dim>
					<dim>256</dim>
					<dim>64</dim>
					<dim>64</dim>
				</port>
			</input>
			<output>
				<port id="1">
					<dim>1</dim>
					<dim>64</dim>
					<dim>64</dim>
					<dim>256</dim>
				</port>
			</output>
		</layer>
		<layer id="142" name="Const_26/Output_0/Data_/copy_const" precision="FP32" type="Const">
			<output>
				<port id="1">
					<dim>1</dim>
					<dim>1</dim>
					<dim>1</dim>
					<dim>256</dim>
				</port>
			</output>
			<blobs>
				<custom offset="8597504" size="1024"/>
			</blobs>
		</layer>
		<layer id="143" name="Add_6/Broadcast/" precision="FP32" type="Tile">
			<data axis="1" tiles="64"/>
			<input>
				<port id="0">
					<dim>1</dim>
					<dim>1</dim>
					<dim>1</dim>
					<dim>256</dim>
				</port>
			</input>
			<output>
				<port id="1">
					<dim>1</dim>
					<dim>64</dim>
					<dim>1</dim>
					<dim>256</dim>
				</port>
			</output>
		</layer>
		<layer id="144" name="Add_6/Broadcast/2653" precision="FP32" type="Tile">
			<data axis="2" tiles="64"/>
			<input>
				<port id="0">
					<dim>1</dim>
					<dim>64</dim>
					<dim>1</dim>
					<dim>256</dim>
				</port>
			</input>
			<output>
				<port id="1">
					<dim>1</dim>
					<dim>64</dim>
					<dim>64</dim>
					<dim>256</dim>
				</port>
			</output>
		</layer>
		<layer id="145" name="Add_6" precision="FP32" type="Eltwise">
			<data operation="sum"/>
			<input>
				<port id="0">
					<dim>1</dim>
					<dim>64</dim>
					<dim>64</dim>
					<dim>256</dim>
				</port>
				<port id="1">
					<dim>1</dim>
					<dim>64</dim>
					<dim>64</dim>
					<dim>256</dim>
				</port>
			</input>
			<output>
				<port id="2">
					<dim>1</dim>
					<dim>64</dim>
					<dim>64</dim>
					<dim>256</dim>
				</port>
			</output>
		</layer>
		<layer id="146" name="transpose_17" precision="FP32" type="Permute">
			<data order="0,3,1,2"/>
			<input>
				<port id="0">
					<dim>1</dim>
					<dim>64</dim>
					<dim>64</dim>
					<dim>256</dim>
				</port>
			</input>
			<output>
				<port id="1">
					<dim>1</dim>
					<dim>256</dim>
					<dim>64</dim>
					<dim>64</dim>
				</port>
			</output>
		</layer>
		<layer id="147" name="moments_5/mean" precision="FP32" type="Pooling">
			<data exclude-pad="true" kernel="64,64" pads_begin="0,0" pads_end="0,0" pool-method="avg" rounding-type="ceil" strides="1,1"/>
			<input>
				<port id="0">
					<dim>1</dim>
					<dim>256</dim>
					<dim>64</dim>
					<dim>64</dim>
				</port>
			</input>
			<output>
				<port id="1">
					<dim>1</dim>
					<dim>256</dim>
					<dim>1</dim>
					<dim>1</dim>
				</port>
			</output>
		</layer>
		<layer id="148" name="moments_5/SquaredDifference/negate_" precision="FP32" type="Power">
			<data power="1" scale="-1" shift="0"/>
			<input>
				<port id="0">
					<dim>1</dim>
					<dim>256</dim>
					<dim>1</dim>
					<dim>1</dim>
				</port>
			</input>
			<output>
				<port id="1">
					<dim>1</dim>
					<dim>256</dim>
					<dim>1</dim>
					<dim>1</dim>
				</port>
			</output>
		</layer>
		<layer id="149" name="moments_5/SquaredDifference/add_/Broadcast/" precision="FP32" type="Tile">
			<data axis="2" tiles="64"/>
			<input>
				<port id="0">
					<dim>1</dim>
					<dim>256</dim>
					<dim>1</dim>
					<dim>1</dim>
				</port>
			</input>
			<output>
				<port id="1">
					<dim>1</dim>
					<dim>256</dim>
					<dim>64</dim>
					<dim>1</dim>
				</port>
			</output>
		</layer>
		<layer id="150" name="moments_5/SquaredDifference/add_/Broadcast/2661" precision="FP32" type="Tile">
			<data axis="3" tiles="64"/>
			<input>
				<port id="0">
					<dim>1</dim>
					<dim>256</dim>
					<dim>64</dim>
					<dim>1</dim>
				</port>
			</input>
			<output>
				<port id="1">
					<dim>1</dim>
					<dim>256</dim>
					<dim>64</dim>
					<dim>64</dim>
				</port>
			</output>
		</layer>
		<layer id="151" name="moments_5/SquaredDifference/add_" precision="FP32" type="Eltwise">
			<data operation="sum"/>
			<input>
				<port id="0">
					<dim>1</dim>
					<dim>256</dim>
					<dim>64</dim>
					<dim>64</dim>
				</port>
				<port id="1">
					<dim>1</dim>
					<dim>256</dim>
					<dim>64</dim>
					<dim>64</dim>
				</port>
			</input>
			<output>
				<port id="2">
					<dim>1</dim>
					<dim>256</dim>
					<dim>64</dim>
					<dim>64</dim>
				</port>
			</output>
		</layer>
		<layer id="152" name="moments_5/SquaredDifference/squared_" precision="FP32" type="Power">
			<data power="2" scale="1" shift="0"/>
			<input>
				<port id="0">
					<dim>1</dim>
					<dim>256</dim>
					<dim>64</dim>
					<dim>64</dim>
				</port>
			</input>
			<output>
				<port id="1">
					<dim>1</dim>
					<dim>256</dim>
					<dim>64</dim>
					<dim>64</dim>
				</port>
			</output>
		</layer>
		<layer id="153" name="moments_5/variance" precision="FP32" type="Pooling">
			<data exclude-pad="true" kernel="64,64" pads_begin="0,0" pads_end="0,0" pool-method="avg" rounding-type="ceil" strides="1,1"/>
			<input>
				<port id="0">
					<dim>1</dim>
					<dim>256</dim>
					<dim>64</dim>
					<dim>64</dim>
				</port>
			</input>
			<output>
				<port id="1">
					<dim>1</dim>
					<dim>256</dim>
					<dim>1</dim>
					<dim>1</dim>
				</port>
			</output>
		</layer>
		<layer id="154" name="instancenorm_5/add" precision="FP32" type="Power">
			<data power="1" scale="1" shift="9.999999747378752e-06"/>
			<input>
				<port id="0">
					<dim>1</dim>
					<dim>256</dim>
					<dim>1</dim>
					<dim>1</dim>
				</port>
			</input>
			<output>
				<port id="1">
					<dim>1</dim>
					<dim>256</dim>
					<dim>1</dim>
					<dim>1</dim>
				</port>
			</output>
		</layer>
		<layer id="155" name="instancenorm_5/Rsqrt" precision="FP32" type="Power">
			<data power="-0.5" scale="1" shift="0"/>
			<input>
				<port id="0">
					<dim>1</dim>
					<dim>256</dim>
					<dim>1</dim>
					<dim>1</dim>
				</port>
			</input>
			<output>
				<port id="1">
					<dim>1</dim>
					<dim>256</dim>
					<dim>1</dim>
					<dim>1</dim>
				</port>
			</output>
		</layer>
		<layer id="156" name="instancenorm_5/mul" precision="FP32" type="ScaleShift">
			<input>
				<port id="0">
					<dim>1</dim>
					<dim>256</dim>
					<dim>1</dim>
					<dim>1</dim>
				</port>
			</input>
			<output>
				<port id="3">
					<dim>1</dim>
					<dim>256</dim>
					<dim>1</dim>
					<dim>1</dim>
				</port>
			</output>
			<blobs>
				<weights offset="1515520" size="1024"/>
				<biases offset="1516544" size="1024"/>
			</blobs>
		</layer>
		<layer id="157" name="instancenorm_5/mul_1/Broadcast/" precision="FP32" type="Tile">
			<data axis="2" tiles="64"/>
			<input>
				<port id="0">
					<dim>1</dim>
					<dim>256</dim>
					<dim>1</dim>
					<dim>1</dim>
				</port>
			</input>
			<output>
				<port id="1">
					<dim>1</dim>
					<dim>256</dim>
					<dim>64</dim>
					<dim>1</dim>
				</port>
			</output>
		</layer>
		<layer id="158" name="instancenorm_5/mul_1/Broadcast/2701" precision="FP32" type="Tile">
			<data axis="3" tiles="64"/>
			<input>
				<port id="0">
					<dim>1</dim>
					<dim>256</dim>
					<dim>64</dim>
					<dim>1</dim>
				</port>
			</input>
			<output>
				<port id="1">
					<dim>1</dim>
					<dim>256</dim>
					<dim>64</dim>
					<dim>64</dim>
				</port>
			</output>
		</layer>
		<layer id="159" name="instancenorm_5/mul_1" precision="FP32" type="Eltwise">
			<data operation="mul"/>
			<input>
				<port id="0">
					<dim>1</dim>
					<dim>256</dim>
					<dim>64</dim>
					<dim>64</dim>
				</port>
				<port id="1">
					<dim>1</dim>
					<dim>256</dim>
					<dim>64</dim>
					<dim>64</dim>
				</port>
			</input>
			<output>
				<port id="2">
					<dim>1</dim>
					<dim>256</dim>
					<dim>64</dim>
					<dim>64</dim>
				</port>
			</output>
		</layer>
		<layer id="160" name="instancenorm_5/mul_2" precision="FP32" type="Eltwise">
			<data operation="mul"/>
			<input>
				<port id="0">
					<dim>1</dim>
					<dim>256</dim>
					<dim>1</dim>
					<dim>1</dim>
				</port>
				<port id="1">
					<dim>1</dim>
					<dim>256</dim>
					<dim>1</dim>
					<dim>1</dim>
				</port>
			</input>
			<output>
				<port id="2">
					<dim>1</dim>
					<dim>256</dim>
					<dim>1</dim>
					<dim>1</dim>
				</port>
			</output>
		</layer>
		<layer id="161" name="instancenorm_5/sub/negate_" precision="FP32" type="Power">
			<data power="1" scale="-1" shift="0"/>
			<input>
				<port id="0">
					<dim>1</dim>
					<dim>256</dim>
					<dim>1</dim>
					<dim>1</dim>
				</port>
			</input>
			<output>
				<port id="1">
					<dim>1</dim>
					<dim>256</dim>
					<dim>1</dim>
					<dim>1</dim>
				</port>
			</output>
		</layer>
		<layer id="162" name="instancenorm_5/sub/add_" precision="FP32" type="ScaleShift">
			<input>
				<port id="0">
					<dim>1</dim>
					<dim>256</dim>
					<dim>1</dim>
					<dim>1</dim>
				</port>
			</input>
			<output>
				<port id="3">
					<dim>1</dim>
					<dim>256</dim>
					<dim>1</dim>
					<dim>1</dim>
				</port>
			</output>
			<blobs>
				<weights offset="1515520" size="1024"/>
				<biases offset="1516544" size="1024"/>
			</blobs>
		</layer>
		<layer id="163" name="instancenorm_5/add_1/Broadcast/" precision="FP32" type="Tile">
			<data axis="2" tiles="64"/>
			<input>
				<port id="0">
					<dim>1</dim>
					<dim>256</dim>
					<dim>1</dim>
					<dim>1</dim>
				</port>
			</input>
			<output>
				<port id="1">
					<dim>1</dim>
					<dim>256</dim>
					<dim>64</dim>
					<dim>1</dim>
				</port>
			</output>
		</layer>
		<layer id="164" name="instancenorm_5/add_1/Broadcast/2509" precision="FP32" type="Tile">
			<data axis="3" tiles="64"/>
			<input>
				<port id="0">
					<dim>1</dim>
					<dim>256</dim>
					<dim>64</dim>
					<dim>1</dim>
				</port>
			</input>
			<output>
				<port id="1">
					<dim>1</dim>
					<dim>256</dim>
					<dim>64</dim>
					<dim>64</dim>
				</port>
			</output>
		</layer>
		<layer id="165" name="instancenorm_5/add_1" precision="FP32" type="Eltwise">
			<data operation="sum"/>
			<input>
				<port id="0">
					<dim>1</dim>
					<dim>256</dim>
					<dim>64</dim>
					<dim>64</dim>
				</port>
				<port id="1">
					<dim>1</dim>
					<dim>256</dim>
					<dim>64</dim>
					<dim>64</dim>
				</port>
			</input>
			<output>
				<port id="2">
					<dim>1</dim>
					<dim>256</dim>
					<dim>64</dim>
					<dim>64</dim>
				</port>
			</output>
		</layer>
		<layer id="166" name="Relu_4" precision="FP32" type="ReLU">
			<input>
				<port id="0">
					<dim>1</dim>
					<dim>256</dim>
					<dim>64</dim>
					<dim>64</dim>
				</port>
			</input>
			<output>
				<port id="1">
					<dim>1</dim>
					<dim>256</dim>
					<dim>64</dim>
					<dim>64</dim>
				</port>
			</output>
		</layer>
		<layer id="167" name="MirrorPad_4" precision="FP32" type="Pad">
			<data pad_mode="reflect" pad_value="0.0" pads_begin="0,0,1,1" pads_end="0,0,1,1"/>
			<input>
				<port id="0">
					<dim>1</dim>
					<dim>256</dim>
					<dim>64</dim>
					<dim>64</dim>
				</port>
			</input>
			<output>
				<port id="1">
					<dim>1</dim>
					<dim>256</dim>
					<dim>66</dim>
					<dim>66</dim>
				</port>
			</output>
		</layer>
		<layer id="168" name="convolution_6" precision="FP32" type="Convolution">
			<data auto_pad="valid" dilations="1,1" group="1" kernel="3,3" output="256" pads_begin="0,0" pads_end="0,0" strides="1,1"/>
			<input>
				<port id="0">
					<dim>1</dim>
					<dim>256</dim>
					<dim>66</dim>
					<dim>66</dim>
				</port>
			</input>
			<output>
				<port id="2">
					<dim>1</dim>
					<dim>256</dim>
					<dim>64</dim>
					<dim>64</dim>
				</port>
			</output>
			<blobs>
				<weights offset="8598528" size="2359296"/>
			</blobs>
		</layer>
		<layer id="169" name="convolution_6/Permute_2238" precision="FP32" type="Permute">
			<data order="0,2,3,1"/>
			<input>
				<port id="0">
					<dim>1</dim>
					<dim>256</dim>
					<dim>64</dim>
					<dim>64</dim>
				</port>
			</input>
			<output>
				<port id="1">
					<dim>1</dim>
					<dim>64</dim>
					<dim>64</dim>
					<dim>256</dim>
				</port>
			</output>
		</layer>
		<layer id="170" name="Const_31/Output_0/Data_/copy_const" precision="FP32" type="Const">
			<output>
				<port id="1">
					<dim>1</dim>
					<dim>1</dim>
					<dim>1</dim>
					<dim>256</dim>
				</port>
			</output>
			<blobs>
				<custom offset="10957824" size="1024"/>
			</blobs>
		</layer>
		<layer id="171" name="Add_7/Broadcast/" precision="FP32" type="Tile">
			<data axis="1" tiles="64"/>
			<input>
				<port id="0">
					<dim>1</dim>
					<dim>1</dim>
					<dim>1</dim>
					<dim>256</dim>
				</port>
			</input>
			<output>
				<port id="1">
					<dim>1</dim>
					<dim>64</dim>
					<dim>1</dim>
					<dim>256</dim>
				</port>
			</output>
		</layer>
		<layer id="172" name="Add_7/Broadcast/2605" precision="FP32" type="Tile">
			<data axis="2" tiles="64"/>
			<input>
				<port id="0">
					<dim>1</dim>
					<dim>64</dim>
					<dim>1</dim>
					<dim>256</dim>
				</port>
			</input>
			<output>
				<port id="1">
					<dim>1</dim>
					<dim>64</dim>
					<dim>64</dim>
					<dim>256</dim>
				</port>
			</output>
		</layer>
		<layer id="173" name="Add_7" precision="FP32" type="Eltwise">
			<data operation="sum"/>
			<input>
				<port id="0">
					<dim>1</dim>
					<dim>64</dim>
					<dim>64</dim>
					<dim>256</dim>
				</port>
				<port id="1">
					<dim>1</dim>
					<dim>64</dim>
					<dim>64</dim>
					<dim>256</dim>
				</port>
			</input>
			<output>
				<port id="2">
					<dim>1</dim>
					<dim>64</dim>
					<dim>64</dim>
					<dim>256</dim>
				</port>
			</output>
		</layer>
		<layer id="174" name="transpose_20" precision="FP32" type="Permute">
			<data order="0,3,1,2"/>
			<input>
				<port id="0">
					<dim>1</dim>
					<dim>64</dim>
					<dim>64</dim>
					<dim>256</dim>
				</port>
			</input>
			<output>
				<port id="1">
					<dim>1</dim>
					<dim>256</dim>
					<dim>64</dim>
					<dim>64</dim>
				</port>
			</output>
		</layer>
		<layer id="175" name="moments_6/mean" precision="FP32" type="Pooling">
			<data exclude-pad="true" kernel="64,64" pads_begin="0,0" pads_end="0,0" pool-method="avg" rounding-type="ceil" strides="1,1"/>
			<input>
				<port id="0">
					<dim>1</dim>
					<dim>256</dim>
					<dim>64</dim>
					<dim>64</dim>
				</port>
			</input>
			<output>
				<port id="1">
					<dim>1</dim>
					<dim>256</dim>
					<dim>1</dim>
					<dim>1</dim>
				</port>
			</output>
		</layer>
		<layer id="176" name="moments_6/SquaredDifference/negate_" precision="FP32" type="Power">
			<data power="1" scale="-1" shift="0"/>
			<input>
				<port id="0">
					<dim>1</dim>
					<dim>256</dim>
					<dim>1</dim>
					<dim>1</dim>
				</port>
			</input>
			<output>
				<port id="1">
					<dim>1</dim>
					<dim>256</dim>
					<dim>1</dim>
					<dim>1</dim>
				</port>
			</output>
		</layer>
		<layer id="177" name="moments_6/SquaredDifference/add_/Broadcast/" precision="FP32" type="Tile">
			<data axis="2" tiles="64"/>
			<input>
				<port id="0">
					<dim>1</dim>
					<dim>256</dim>
					<dim>1</dim>
					<dim>1</dim>
				</port>
			</input>
			<output>
				<port id="1">
					<dim>1</dim>
					<dim>256</dim>
					<dim>64</dim>
					<dim>1</dim>
				</port>
			</output>
		</layer>
		<layer id="178" name="moments_6/SquaredDifference/add_/Broadcast/2549" precision="FP32" type="Tile">
			<data axis="3" tiles="64"/>
			<input>
				<port id="0">
					<dim>1</dim>
					<dim>256</dim>
					<dim>64</dim>
					<dim>1</dim>
				</port>
			</input>
			<output>
				<port id="1">
					<dim>1</dim>
					<dim>256</dim>
					<dim>64</dim>
					<dim>64</dim>
				</port>
			</output>
		</layer>
		<layer id="179" name="moments_6/SquaredDifference/add_" precision="FP32" type="Eltwise">
			<data operation="sum"/>
			<input>
				<port id="0">
					<dim>1</dim>
					<dim>256</dim>
					<dim>64</dim>
					<dim>64</dim>
				</port>
				<port id="1">
					<dim>1</dim>
					<dim>256</dim>
					<dim>64</dim>
					<dim>64</dim>
				</port>
			</input>
			<output>
				<port id="2">
					<dim>1</dim>
					<dim>256</dim>
					<dim>64</dim>
					<dim>64</dim>
				</port>
			</output>
		</layer>
		<layer id="180" name="moments_6/SquaredDifference/squared_" precision="FP32" type="Power">
			<data power="2" scale="1" shift="0"/>
			<input>
				<port id="0">
					<dim>1</dim>
					<dim>256</dim>
					<dim>64</dim>
					<dim>64</dim>
				</port>
			</input>
			<output>
				<port id="1">
					<dim>1</dim>
					<dim>256</dim>
					<dim>64</dim>
					<dim>64</dim>
				</port>
			</output>
		</layer>
		<layer id="181" name="moments_6/variance" precision="FP32" type="Pooling">
			<data exclude-pad="true" kernel="64,64" pads_begin="0,0" pads_end="0,0" pool-method="avg" rounding-type="ceil" strides="1,1"/>
			<input>
				<port id="0">
					<dim>1</dim>
					<dim>256</dim>
					<dim>64</dim>
					<dim>64</dim>
				</port>
			</input>
			<output>
				<port id="1">
					<dim>1</dim>
					<dim>256</dim>
					<dim>1</dim>
					<dim>1</dim>
				</port>
			</output>
		</layer>
		<layer id="182" name="instancenorm_6/add" precision="FP32" type="Power">
			<data power="1" scale="1" shift="9.999999747378752e-06"/>
			<input>
				<port id="0">
					<dim>1</dim>
					<dim>256</dim>
					<dim>1</dim>
					<dim>1</dim>
				</port>
			</input>
			<output>
				<port id="1">
					<dim>1</dim>
					<dim>256</dim>
					<dim>1</dim>
					<dim>1</dim>
				</port>
			</output>
		</layer>
		<layer id="183" name="instancenorm_6/Rsqrt" precision="FP32" type="Power">
			<data power="-0.5" scale="1" shift="0"/>
			<input>
				<port id="0">
					<dim>1</dim>
					<dim>256</dim>
					<dim>1</dim>
					<dim>1</dim>
				</port>
			</input>
			<output>
				<port id="1">
					<dim>1</dim>
					<dim>256</dim>
					<dim>1</dim>
					<dim>1</dim>
				</port>
			</output>
		</layer>
		<layer id="184" name="instancenorm_6/mul" precision="FP32" type="ScaleShift">
			<input>
				<port id="0">
					<dim>1</dim>
					<dim>256</dim>
					<dim>1</dim>
					<dim>1</dim>
				</port>
			</input>
			<output>
				<port id="3">
					<dim>1</dim>
					<dim>256</dim>
					<dim>1</dim>
					<dim>1</dim>
				</port>
			</output>
			<blobs>
				<weights offset="1515520" size="1024"/>
				<biases offset="1516544" size="1024"/>
			</blobs>
		</layer>
		<layer id="185" name="instancenorm_6/mul_1/Broadcast/" precision="FP32" type="Tile">
			<data axis="2" tiles="64"/>
			<input>
				<port id="0">
					<dim>1</dim>
					<dim>256</dim>
					<dim>1</dim>
					<dim>1</dim>
				</port>
			</input>
			<output>
				<port id="1">
					<dim>1</dim>
					<dim>256</dim>
					<dim>64</dim>
					<dim>1</dim>
				</port>
			</output>
		</layer>
		<layer id="186" name="instancenorm_6/mul_1/Broadcast/2481" precision="FP32" type="Tile">
			<data axis="3" tiles="64"/>
			<input>
				<port id="0">
					<dim>1</dim>
					<dim>256</dim>
					<dim>64</dim>
					<dim>1</dim>
				</port>
			</input>
			<output>
				<port id="1">
					<dim>1</dim>
					<dim>256</dim>
					<dim>64</dim>
					<dim>64</dim>
				</port>
			</output>
		</layer>
		<layer id="187" name="instancenorm_6/mul_1" precision="FP32" type="Eltwise">
			<data operation="mul"/>
			<input>
				<port id="0">
					<dim>1</dim>
					<dim>256</dim>
					<dim>64</dim>
					<dim>64</dim>
				</port>
				<port id="1">
					<dim>1</dim>
					<dim>256</dim>
					<dim>64</dim>
					<dim>64</dim>
				</port>
			</input>
			<output>
				<port id="2">
					<dim>1</dim>
					<dim>256</dim>
					<dim>64</dim>
					<dim>64</dim>
				</port>
			</output>
		</layer>
		<layer id="188" name="instancenorm_6/mul_2" precision="FP32" type="Eltwise">
			<data operation="mul"/>
			<input>
				<port id="0">
					<dim>1</dim>
					<dim>256</dim>
					<dim>1</dim>
					<dim>1</dim>
				</port>
				<port id="1">
					<dim>1</dim>
					<dim>256</dim>
					<dim>1</dim>
					<dim>1</dim>
				</port>
			</input>
			<output>
				<port id="2">
					<dim>1</dim>
					<dim>256</dim>
					<dim>1</dim>
					<dim>1</dim>
				</port>
			</output>
		</layer>
		<layer id="189" name="instancenorm_6/sub/negate_" precision="FP32" type="Power">
			<data power="1" scale="-1" shift="0"/>
			<input>
				<port id="0">
					<dim>1</dim>
					<dim>256</dim>
					<dim>1</dim>
					<dim>1</dim>
				</port>
			</input>
			<output>
				<port id="1">
					<dim>1</dim>
					<dim>256</dim>
					<dim>1</dim>
					<dim>1</dim>
				</port>
			</output>
		</layer>
		<layer id="190" name="instancenorm_6/sub/add_" precision="FP32" type="ScaleShift">
			<input>
				<port id="0">
					<dim>1</dim>
					<dim>256</dim>
					<dim>1</dim>
					<dim>1</dim>
				</port>
			</input>
			<output>
				<port id="3">
					<dim>1</dim>
					<dim>256</dim>
					<dim>1</dim>
					<dim>1</dim>
				</port>
			</output>
			<blobs>
				<weights offset="1515520" size="1024"/>
				<biases offset="1516544" size="1024"/>
			</blobs>
		</layer>
		<layer id="191" name="instancenorm_6/add_1/Broadcast/" precision="FP32" type="Tile">
			<data axis="2" tiles="64"/>
			<input>
				<port id="0">
					<dim>1</dim>
					<dim>256</dim>
					<dim>1</dim>
					<dim>1</dim>
				</port>
			</input>
			<output>
				<port id="1">
					<dim>1</dim>
					<dim>256</dim>
					<dim>64</dim>
					<dim>1</dim>
				</port>
			</output>
		</layer>
		<layer id="192" name="instancenorm_6/add_1/Broadcast/2545" precision="FP32" type="Tile">
			<data axis="3" tiles="64"/>
			<input>
				<port id="0">
					<dim>1</dim>
					<dim>256</dim>
					<dim>64</dim>
					<dim>1</dim>
				</port>
			</input>
			<output>
				<port id="1">
					<dim>1</dim>
					<dim>256</dim>
					<dim>64</dim>
					<dim>64</dim>
				</port>
			</output>
		</layer>
		<layer id="193" name="instancenorm_6/add_1" precision="FP32" type="Eltwise">
			<data operation="sum"/>
			<input>
				<port id="0">
					<dim>1</dim>
					<dim>256</dim>
					<dim>64</dim>
					<dim>64</dim>
				</port>
				<port id="1">
					<dim>1</dim>
					<dim>256</dim>
					<dim>64</dim>
					<dim>64</dim>
				</port>
			</input>
			<output>
				<port id="2">
					<dim>1</dim>
					<dim>256</dim>
					<dim>64</dim>
					<dim>64</dim>
				</port>
			</output>
		</layer>
		<layer id="194" name="Add_8" precision="FP32" type="Eltwise">
			<data operation="sum"/>
			<input>
				<port id="0">
					<dim>1</dim>
					<dim>256</dim>
					<dim>64</dim>
					<dim>64</dim>
				</port>
				<port id="1">
					<dim>1</dim>
					<dim>256</dim>
					<dim>64</dim>
					<dim>64</dim>
				</port>
			</input>
			<output>
				<port id="2">
					<dim>1</dim>
					<dim>256</dim>
					<dim>64</dim>
					<dim>64</dim>
				</port>
			</output>
		</layer>
		<layer id="195" name="MirrorPad_5" precision="FP32" type="Pad">
			<data pad_mode="reflect" pad_value="0.0" pads_begin="0,0,1,1" pads_end="0,0,1,1"/>
			<input>
				<port id="0">
					<dim>1</dim>
					<dim>256</dim>
					<dim>64</dim>
					<dim>64</dim>
				</port>
			</input>
			<output>
				<port id="1">
					<dim>1</dim>
					<dim>256</dim>
					<dim>66</dim>
					<dim>66</dim>
				</port>
			</output>
		</layer>
		<layer id="196" name="convolution_7" precision="FP32" type="Convolution">
			<data auto_pad="valid" dilations="1,1" group="1" kernel="3,3" output="256" pads_begin="0,0" pads_end="0,0" strides="1,1"/>
			<input>
				<port id="0">
					<dim>1</dim>
					<dim>256</dim>
					<dim>66</dim>
					<dim>66</dim>
				</port>
			</input>
			<output>
				<port id="2">
					<dim>1</dim>
					<dim>256</dim>
					<dim>64</dim>
					<dim>64</dim>
				</port>
			</output>
			<blobs>
				<weights offset="10958848" size="2359296"/>
			</blobs>
		</layer>
		<layer id="197" name="convolution_7/Permute_2290" precision="FP32" type="Permute">
			<data order="0,2,3,1"/>
			<input>
				<port id="0">
					<dim>1</dim>
					<dim>256</dim>
					<dim>64</dim>
					<dim>64</dim>
				</port>
			</input>
			<output>
				<port id="1">
					<dim>1</dim>
					<dim>64</dim>
					<dim>64</dim>
					<dim>256</dim>
				</port>
			</output>
		</layer>
		<layer id="198" name="Const_36/Output_0/Data_/copy_const" precision="FP32" type="Const">
			<output>
				<port id="1">
					<dim>1</dim>
					<dim>1</dim>
					<dim>1</dim>
					<dim>256</dim>
				</port>
			</output>
			<blobs>
				<custom offset="13318144" size="1024"/>
			</blobs>
		</layer>
		<layer id="199" name="Add_9/Broadcast/" precision="FP32" type="Tile">
			<data axis="1" tiles="64"/>
			<input>
				<port id="0">
					<dim>1</dim>
					<dim>1</dim>
					<dim>1</dim>
					<dim>256</dim>
				</port>
			</input>
			<output>
				<port id="1">
					<dim>1</dim>
					<dim>64</dim>
					<dim>1</dim>
					<dim>256</dim>
				</port>
			</output>
		</layer>
		<layer id="200" name="Add_9/Broadcast/2465" precision="FP32" type="Tile">
			<data axis="2" tiles="64"/>
			<input>
				<port id="0">
					<dim>1</dim>
					<dim>64</dim>
					<dim>1</dim>
					<dim>256</dim>
				</port>
			</input>
			<output>
				<port id="1">
					<dim>1</dim>
					<dim>64</dim>
					<dim>64</dim>
					<dim>256</dim>
				</port>
			</output>
		</layer>
		<layer id="201" name="Add_9" precision="FP32" type="Eltwise">
			<data operation="sum"/>
			<input>
				<port id="0">
					<dim>1</dim>
					<dim>64</dim>
					<dim>64</dim>
					<dim>256</dim>
				</port>
				<port id="1">
					<dim>1</dim>
					<dim>64</dim>
					<dim>64</dim>
					<dim>256</dim>
				</port>
			</input>
			<output>
				<port id="2">
					<dim>1</dim>
					<dim>64</dim>
					<dim>64</dim>
					<dim>256</dim>
				</port>
			</output>
		</layer>
		<layer id="202" name="transpose_23" precision="FP32" type="Permute">
			<data order="0,3,1,2"/>
			<input>
				<port id="0">
					<dim>1</dim>
					<dim>64</dim>
					<dim>64</dim>
					<dim>256</dim>
				</port>
			</input>
			<output>
				<port id="1">
					<dim>1</dim>
					<dim>256</dim>
					<dim>64</dim>
					<dim>64</dim>
				</port>
			</output>
		</layer>
		<layer id="203" name="moments_7/mean" precision="FP32" type="Pooling">
			<data exclude-pad="true" kernel="64,64" pads_begin="0,0" pads_end="0,0" pool-method="avg" rounding-type="ceil" strides="1,1"/>
			<input>
				<port id="0">
					<dim>1</dim>
					<dim>256</dim>
					<dim>64</dim>
					<dim>64</dim>
				</port>
			</input>
			<output>
				<port id="1">
					<dim>1</dim>
					<dim>256</dim>
					<dim>1</dim>
					<dim>1</dim>
				</port>
			</output>
		</layer>
		<layer id="204" name="moments_7/SquaredDifference/negate_" precision="FP32" type="Power">
			<data power="1" scale="-1" shift="0"/>
			<input>
				<port id="0">
					<dim>1</dim>
					<dim>256</dim>
					<dim>1</dim>
					<dim>1</dim>
				</port>
			</input>
			<output>
				<port id="1">
					<dim>1</dim>
					<dim>256</dim>
					<dim>1</dim>
					<dim>1</dim>
				</port>
			</output>
		</layer>
		<layer id="205" name="moments_7/SquaredDifference/add_/Broadcast/" precision="FP32" type="Tile">
			<data axis="2" tiles="64"/>
			<input>
				<port id="0">
					<dim>1</dim>
					<dim>256</dim>
					<dim>1</dim>
					<dim>1</dim>
				</port>
			</input>
			<output>
				<port id="1">
					<dim>1</dim>
					<dim>256</dim>
					<dim>64</dim>
					<dim>1</dim>
				</port>
			</output>
		</layer>
		<layer id="206" name="moments_7/SquaredDifference/add_/Broadcast/2681" precision="FP32" type="Tile">
			<data axis="3" tiles="64"/>
			<input>
				<port id="0">
					<dim>1</dim>
					<dim>256</dim>
					<dim>64</dim>
					<dim>1</dim>
				</port>
			</input>
			<output>
				<port id="1">
					<dim>1</dim>
					<dim>256</dim>
					<dim>64</dim>
					<dim>64</dim>
				</port>
			</output>
		</layer>
		<layer id="207" name="moments_7/SquaredDifference/add_" precision="FP32" type="Eltwise">
			<data operation="sum"/>
			<input>
				<port id="0">
					<dim>1</dim>
					<dim>256</dim>
					<dim>64</dim>
					<dim>64</dim>
				</port>
				<port id="1">
					<dim>1</dim>
					<dim>256</dim>
					<dim>64</dim>
					<dim>64</dim>
				</port>
			</input>
			<output>
				<port id="2">
					<dim>1</dim>
					<dim>256</dim>
					<dim>64</dim>
					<dim>64</dim>
				</port>
			</output>
		</layer>
		<layer id="208" name="moments_7/SquaredDifference/squared_" precision="FP32" type="Power">
			<data power="2" scale="1" shift="0"/>
			<input>
				<port id="0">
					<dim>1</dim>
					<dim>256</dim>
					<dim>64</dim>
					<dim>64</dim>
				</port>
			</input>
			<output>
				<port id="1">
					<dim>1</dim>
					<dim>256</dim>
					<dim>64</dim>
					<dim>64</dim>
				</port>
			</output>
		</layer>
		<layer id="209" name="moments_7/variance" precision="FP32" type="Pooling">
			<data exclude-pad="true" kernel="64,64" pads_begin="0,0" pads_end="0,0" pool-method="avg" rounding-type="ceil" strides="1,1"/>
			<input>
				<port id="0">
					<dim>1</dim>
					<dim>256</dim>
					<dim>64</dim>
					<dim>64</dim>
				</port>
			</input>
			<output>
				<port id="1">
					<dim>1</dim>
					<dim>256</dim>
					<dim>1</dim>
					<dim>1</dim>
				</port>
			</output>
		</layer>
		<layer id="210" name="instancenorm_7/add" precision="FP32" type="Power">
			<data power="1" scale="1" shift="9.999999747378752e-06"/>
			<input>
				<port id="0">
					<dim>1</dim>
					<dim>256</dim>
					<dim>1</dim>
					<dim>1</dim>
				</port>
			</input>
			<output>
				<port id="1">
					<dim>1</dim>
					<dim>256</dim>
					<dim>1</dim>
					<dim>1</dim>
				</port>
			</output>
		</layer>
		<layer id="211" name="instancenorm_7/Rsqrt" precision="FP32" type="Power">
			<data power="-0.5" scale="1" shift="0"/>
			<input>
				<port id="0">
					<dim>1</dim>
					<dim>256</dim>
					<dim>1</dim>
					<dim>1</dim>
				</port>
			</input>
			<output>
				<port id="1">
					<dim>1</dim>
					<dim>256</dim>
					<dim>1</dim>
					<dim>1</dim>
				</port>
			</output>
		</layer>
		<layer id="212" name="instancenorm_7/mul" precision="FP32" type="ScaleShift">
			<input>
				<port id="0">
					<dim>1</dim>
					<dim>256</dim>
					<dim>1</dim>
					<dim>1</dim>
				</port>
			</input>
			<output>
				<port id="3">
					<dim>1</dim>
					<dim>256</dim>
					<dim>1</dim>
					<dim>1</dim>
				</port>
			</output>
			<blobs>
				<weights offset="1515520" size="1024"/>
				<biases offset="1516544" size="1024"/>
			</blobs>
		</layer>
		<layer id="213" name="instancenorm_7/mul_1/Broadcast/" precision="FP32" type="Tile">
			<data axis="2" tiles="64"/>
			<input>
				<port id="0">
					<dim>1</dim>
					<dim>256</dim>
					<dim>1</dim>
					<dim>1</dim>
				</port>
			</input>
			<output>
				<port id="1">
					<dim>1</dim>
					<dim>256</dim>
					<dim>64</dim>
					<dim>1</dim>
				</port>
			</output>
		</layer>
		<layer id="214" name="instancenorm_7/mul_1/Broadcast/2469" precision="FP32" type="Tile">
			<data axis="3" tiles="64"/>
			<input>
				<port id="0">
					<dim>1</dim>
					<dim>256</dim>
					<dim>64</dim>
					<dim>1</dim>
				</port>
			</input>
			<output>
				<port id="1">
					<dim>1</dim>
					<dim>256</dim>
					<dim>64</dim>
					<dim>64</dim>
				</port>
			</output>
		</layer>
		<layer id="215" name="instancenorm_7/mul_1" precision="FP32" type="Eltwise">
			<data operation="mul"/>
			<input>
				<port id="0">
					<dim>1</dim>
					<dim>256</dim>
					<dim>64</dim>
					<dim>64</dim>
				</port>
				<port id="1">
					<dim>1</dim>
					<dim>256</dim>
					<dim>64</dim>
					<dim>64</dim>
				</port>
			</input>
			<output>
				<port id="2">
					<dim>1</dim>
					<dim>256</dim>
					<dim>64</dim>
					<dim>64</dim>
				</port>
			</output>
		</layer>
		<layer id="216" name="instancenorm_7/mul_2" precision="FP32" type="Eltwise">
			<data operation="mul"/>
			<input>
				<port id="0">
					<dim>1</dim>
					<dim>256</dim>
					<dim>1</dim>
					<dim>1</dim>
				</port>
				<port id="1">
					<dim>1</dim>
					<dim>256</dim>
					<dim>1</dim>
					<dim>1</dim>
				</port>
			</input>
			<output>
				<port id="2">
					<dim>1</dim>
					<dim>256</dim>
					<dim>1</dim>
					<dim>1</dim>
				</port>
			</output>
		</layer>
		<layer id="217" name="instancenorm_7/sub/negate_" precision="FP32" type="Power">
			<data power="1" scale="-1" shift="0"/>
			<input>
				<port id="0">
					<dim>1</dim>
					<dim>256</dim>
					<dim>1</dim>
					<dim>1</dim>
				</port>
			</input>
			<output>
				<port id="1">
					<dim>1</dim>
					<dim>256</dim>
					<dim>1</dim>
					<dim>1</dim>
				</port>
			</output>
		</layer>
		<layer id="218" name="instancenorm_7/sub/add_" precision="FP32" type="ScaleShift">
			<input>
				<port id="0">
					<dim>1</dim>
					<dim>256</dim>
					<dim>1</dim>
					<dim>1</dim>
				</port>
			</input>
			<output>
				<port id="3">
					<dim>1</dim>
					<dim>256</dim>
					<dim>1</dim>
					<dim>1</dim>
				</port>
			</output>
			<blobs>
				<weights offset="1515520" size="1024"/>
				<biases offset="1516544" size="1024"/>
			</blobs>
		</layer>
		<layer id="219" name="instancenorm_7/add_1/Broadcast/" precision="FP32" type="Tile">
			<data axis="2" tiles="64"/>
			<input>
				<port id="0">
					<dim>1</dim>
					<dim>256</dim>
					<dim>1</dim>
					<dim>1</dim>
				</port>
			</input>
			<output>
				<port id="1">
					<dim>1</dim>
					<dim>256</dim>
					<dim>64</dim>
					<dim>1</dim>
				</port>
			</output>
		</layer>
		<layer id="220" name="instancenorm_7/add_1/Broadcast/2517" precision="FP32" type="Tile">
			<data axis="3" tiles="64"/>
			<input>
				<port id="0">
					<dim>1</dim>
					<dim>256</dim>
					<dim>64</dim>
					<dim>1</dim>
				</port>
			</input>
			<output>
				<port id="1">
					<dim>1</dim>
					<dim>256</dim>
					<dim>64</dim>
					<dim>64</dim>
				</port>
			</output>
		</layer>
		<layer id="221" name="instancenorm_7/add_1" precision="FP32" type="Eltwise">
			<data operation="sum"/>
			<input>
				<port id="0">
					<dim>1</dim>
					<dim>256</dim>
					<dim>64</dim>
					<dim>64</dim>
				</port>
				<port id="1">
					<dim>1</dim>
					<dim>256</dim>
					<dim>64</dim>
					<dim>64</dim>
				</port>
			</input>
			<output>
				<port id="2">
					<dim>1</dim>
					<dim>256</dim>
					<dim>64</dim>
					<dim>64</dim>
				</port>
			</output>
		</layer>
		<layer id="222" name="Relu_5" precision="FP32" type="ReLU">
			<input>
				<port id="0">
					<dim>1</dim>
					<dim>256</dim>
					<dim>64</dim>
					<dim>64</dim>
				</port>
			</input>
			<output>
				<port id="1">
					<dim>1</dim>
					<dim>256</dim>
					<dim>64</dim>
					<dim>64</dim>
				</port>
			</output>
		</layer>
		<layer id="223" name="MirrorPad_6" precision="FP32" type="Pad">
			<data pad_mode="reflect" pad_value="0.0" pads_begin="0,0,1,1" pads_end="0,0,1,1"/>
			<input>
				<port id="0">
					<dim>1</dim>
					<dim>256</dim>
					<dim>64</dim>
					<dim>64</dim>
				</port>
			</input>
			<output>
				<port id="1">
					<dim>1</dim>
					<dim>256</dim>
					<dim>66</dim>
					<dim>66</dim>
				</port>
			</output>
		</layer>
		<layer id="224" name="convolution_8" precision="FP32" type="Convolution">
			<data auto_pad="valid" dilations="1,1" group="1" kernel="3,3" output="256" pads_begin="0,0" pads_end="0,0" strides="1,1"/>
			<input>
				<port id="0">
					<dim>1</dim>
					<dim>256</dim>
					<dim>66</dim>
					<dim>66</dim>
				</port>
			</input>
			<output>
				<port id="2">
					<dim>1</dim>
					<dim>256</dim>
					<dim>64</dim>
					<dim>64</dim>
				</port>
			</output>
			<blobs>
				<weights offset="13319168" size="2359296"/>
			</blobs>
		</layer>
		<layer id="225" name="convolution_8/Permute_2242" precision="FP32" type="Permute">
			<data order="0,2,3,1"/>
			<input>
				<port id="0">
					<dim>1</dim>
					<dim>256</dim>
					<dim>64</dim>
					<dim>64</dim>
				</port>
			</input>
			<output>
				<port id="1">
					<dim>1</dim>
					<dim>64</dim>
					<dim>64</dim>
					<dim>256</dim>
				</port>
			</output>
		</layer>
		<layer id="226" name="Const_41/Output_0/Data_/copy_const" precision="FP32" type="Const">
			<output>
				<port id="1">
					<dim>1</dim>
					<dim>1</dim>
					<dim>1</dim>
					<dim>256</dim>
				</port>
			</output>
			<blobs>
				<custom offset="15678464" size="1024"/>
			</blobs>
		</layer>
		<layer id="227" name="Add_10/Broadcast/" precision="FP32" type="Tile">
			<data axis="1" tiles="64"/>
			<input>
				<port id="0">
					<dim>1</dim>
					<dim>1</dim>
					<dim>1</dim>
					<dim>256</dim>
				</port>
			</input>
			<output>
				<port id="1">
					<dim>1</dim>
					<dim>64</dim>
					<dim>1</dim>
					<dim>256</dim>
				</port>
			</output>
		</layer>
		<layer id="228" name="Add_10/Broadcast/2589" precision="FP32" type="Tile">
			<data axis="2" tiles="64"/>
			<input>
				<port id="0">
					<dim>1</dim>
					<dim>64</dim>
					<dim>1</dim>
					<dim>256</dim>
				</port>
			</input>
			<output>
				<port id="1">
					<dim>1</dim>
					<dim>64</dim>
					<dim>64</dim>
					<dim>256</dim>
				</port>
			</output>
		</layer>
		<layer id="229" name="Add_10" precision="FP32" type="Eltwise">
			<data operation="sum"/>
			<input>
				<port id="0">
					<dim>1</dim>
					<dim>64</dim>
					<dim>64</dim>
					<dim>256</dim>
				</port>
				<port id="1">
					<dim>1</dim>
					<dim>64</dim>
					<dim>64</dim>
					<dim>256</dim>
				</port>
			</input>
			<output>
				<port id="2">
					<dim>1</dim>
					<dim>64</dim>
					<dim>64</dim>
					<dim>256</dim>
				</port>
			</output>
		</layer>
		<layer id="230" name="transpose_26" precision="FP32" type="Permute">
			<data order="0,3,1,2"/>
			<input>
				<port id="0">
					<dim>1</dim>
					<dim>64</dim>
					<dim>64</dim>
					<dim>256</dim>
				</port>
			</input>
			<output>
				<port id="1">
					<dim>1</dim>
					<dim>256</dim>
					<dim>64</dim>
					<dim>64</dim>
				</port>
			</output>
		</layer>
		<layer id="231" name="moments_8/mean" precision="FP32" type="Pooling">
			<data exclude-pad="true" kernel="64,64" pads_begin="0,0" pads_end="0,0" pool-method="avg" rounding-type="ceil" strides="1,1"/>
			<input>
				<port id="0">
					<dim>1</dim>
					<dim>256</dim>
					<dim>64</dim>
					<dim>64</dim>
				</port>
			</input>
			<output>
				<port id="1">
					<dim>1</dim>
					<dim>256</dim>
					<dim>1</dim>
					<dim>1</dim>
				</port>
			</output>
		</layer>
		<layer id="232" name="moments_8/SquaredDifference/negate_" precision="FP32" type="Power">
			<data power="1" scale="-1" shift="0"/>
			<input>
				<port id="0">
					<dim>1</dim>
					<dim>256</dim>
					<dim>1</dim>
					<dim>1</dim>
				</port>
			</input>
			<output>
				<port id="1">
					<dim>1</dim>
					<dim>256</dim>
					<dim>1</dim>
					<dim>1</dim>
				</port>
			</output>
		</layer>
		<layer id="233" name="moments_8/SquaredDifference/add_/Broadcast/" precision="FP32" type="Tile">
			<data axis="2" tiles="64"/>
			<input>
				<port id="0">
					<dim>1</dim>
					<dim>256</dim>
					<dim>1</dim>
					<dim>1</dim>
				</port>
			</input>
			<output>
				<port id="1">
					<dim>1</dim>
					<dim>256</dim>
					<dim>64</dim>
					<dim>1</dim>
				</port>
			</output>
		</layer>
		<layer id="234" name="moments_8/SquaredDifference/add_/Broadcast/2569" precision="FP32" type="Tile">
			<data axis="3" tiles="64"/>
			<input>
				<port id="0">
					<dim>1</dim>
					<dim>256</dim>
					<dim>64</dim>
					<dim>1</dim>
				</port>
			</input>
			<output>
				<port id="1">
					<dim>1</dim>
					<dim>256</dim>
					<dim>64</dim>
					<dim>64</dim>
				</port>
			</output>
		</layer>
		<layer id="235" name="moments_8/SquaredDifference/add_" precision="FP32" type="Eltwise">
			<data operation="sum"/>
			<input>
				<port id="0">
					<dim>1</dim>
					<dim>256</dim>
					<dim>64</dim>
					<dim>64</dim>
				</port>
				<port id="1">
					<dim>1</dim>
					<dim>256</dim>
					<dim>64</dim>
					<dim>64</dim>
				</port>
			</input>
			<output>
				<port id="2">
					<dim>1</dim>
					<dim>256</dim>
					<dim>64</dim>
					<dim>64</dim>
				</port>
			</output>
		</layer>
		<layer id="236" name="moments_8/SquaredDifference/squared_" precision="FP32" type="Power">
			<data power="2" scale="1" shift="0"/>
			<input>
				<port id="0">
					<dim>1</dim>
					<dim>256</dim>
					<dim>64</dim>
					<dim>64</dim>
				</port>
			</input>
			<output>
				<port id="1">
					<dim>1</dim>
					<dim>256</dim>
					<dim>64</dim>
					<dim>64</dim>
				</port>
			</output>
		</layer>
		<layer id="237" name="moments_8/variance" precision="FP32" type="Pooling">
			<data exclude-pad="true" kernel="64,64" pads_begin="0,0" pads_end="0,0" pool-method="avg" rounding-type="ceil" strides="1,1"/>
			<input>
				<port id="0">
					<dim>1</dim>
					<dim>256</dim>
					<dim>64</dim>
					<dim>64</dim>
				</port>
			</input>
			<output>
				<port id="1">
					<dim>1</dim>
					<dim>256</dim>
					<dim>1</dim>
					<dim>1</dim>
				</port>
			</output>
		</layer>
		<layer id="238" name="instancenorm_8/add" precision="FP32" type="Power">
			<data power="1" scale="1" shift="9.999999747378752e-06"/>
			<input>
				<port id="0">
					<dim>1</dim>
					<dim>256</dim>
					<dim>1</dim>
					<dim>1</dim>
				</port>
			</input>
			<output>
				<port id="1">
					<dim>1</dim>
					<dim>256</dim>
					<dim>1</dim>
					<dim>1</dim>
				</port>
			</output>
		</layer>
		<layer id="239" name="instancenorm_8/Rsqrt" precision="FP32" type="Power">
			<data power="-0.5" scale="1" shift="0"/>
			<input>
				<port id="0">
					<dim>1</dim>
					<dim>256</dim>
					<dim>1</dim>
					<dim>1</dim>
				</port>
			</input>
			<output>
				<port id="1">
					<dim>1</dim>
					<dim>256</dim>
					<dim>1</dim>
					<dim>1</dim>
				</port>
			</output>
		</layer>
		<layer id="240" name="instancenorm_8/mul" precision="FP32" type="ScaleShift">
			<input>
				<port id="0">
					<dim>1</dim>
					<dim>256</dim>
					<dim>1</dim>
					<dim>1</dim>
				</port>
			</input>
			<output>
				<port id="3">
					<dim>1</dim>
					<dim>256</dim>
					<dim>1</dim>
					<dim>1</dim>
				</port>
			</output>
			<blobs>
				<weights offset="1515520" size="1024"/>
				<biases offset="1516544" size="1024"/>
			</blobs>
		</layer>
		<layer id="241" name="instancenorm_8/mul_1/Broadcast/" precision="FP32" type="Tile">
			<data axis="2" tiles="64"/>
			<input>
				<port id="0">
					<dim>1</dim>
					<dim>256</dim>
					<dim>1</dim>
					<dim>1</dim>
				</port>
			</input>
			<output>
				<port id="1">
					<dim>1</dim>
					<dim>256</dim>
					<dim>64</dim>
					<dim>1</dim>
				</port>
			</output>
		</layer>
		<layer id="242" name="instancenorm_8/mul_1/Broadcast/2473" precision="FP32" type="Tile">
			<data axis="3" tiles="64"/>
			<input>
				<port id="0">
					<dim>1</dim>
					<dim>256</dim>
					<dim>64</dim>
					<dim>1</dim>
				</port>
			</input>
			<output>
				<port id="1">
					<dim>1</dim>
					<dim>256</dim>
					<dim>64</dim>
					<dim>64</dim>
				</port>
			</output>
		</layer>
		<layer id="243" name="instancenorm_8/mul_1" precision="FP32" type="Eltwise">
			<data operation="mul"/>
			<input>
				<port id="0">
					<dim>1</dim>
					<dim>256</dim>
					<dim>64</dim>
					<dim>64</dim>
				</port>
				<port id="1">
					<dim>1</dim>
					<dim>256</dim>
					<dim>64</dim>
					<dim>64</dim>
				</port>
			</input>
			<output>
				<port id="2">
					<dim>1</dim>
					<dim>256</dim>
					<dim>64</dim>
					<dim>64</dim>
				</port>
			</output>
		</layer>
		<layer id="244" name="instancenorm_8/mul_2" precision="FP32" type="Eltwise">
			<data operation="mul"/>
			<input>
				<port id="0">
					<dim>1</dim>
					<dim>256</dim>
					<dim>1</dim>
					<dim>1</dim>
				</port>
				<port id="1">
					<dim>1</dim>
					<dim>256</dim>
					<dim>1</dim>
					<dim>1</dim>
				</port>
			</input>
			<output>
				<port id="2">
					<dim>1</dim>
					<dim>256</dim>
					<dim>1</dim>
					<dim>1</dim>
				</port>
			</output>
		</layer>
		<layer id="245" name="instancenorm_8/sub/negate_" precision="FP32" type="Power">
			<data power="1" scale="-1" shift="0"/>
			<input>
				<port id="0">
					<dim>1</dim>
					<dim>256</dim>
					<dim>1</dim>
					<dim>1</dim>
				</port>
			</input>
			<output>
				<port id="1">
					<dim>1</dim>
					<dim>256</dim>
					<dim>1</dim>
					<dim>1</dim>
				</port>
			</output>
		</layer>
		<layer id="246" name="instancenorm_8/sub/add_" precision="FP32" type="ScaleShift">
			<input>
				<port id="0">
					<dim>1</dim>
					<dim>256</dim>
					<dim>1</dim>
					<dim>1</dim>
				</port>
			</input>
			<output>
				<port id="3">
					<dim>1</dim>
					<dim>256</dim>
					<dim>1</dim>
					<dim>1</dim>
				</port>
			</output>
			<blobs>
				<weights offset="1515520" size="1024"/>
				<biases offset="1516544" size="1024"/>
			</blobs>
		</layer>
		<layer id="247" name="instancenorm_8/add_1/Broadcast/" precision="FP32" type="Tile">
			<data axis="2" tiles="64"/>
			<input>
				<port id="0">
					<dim>1</dim>
					<dim>256</dim>
					<dim>1</dim>
					<dim>1</dim>
				</port>
			</input>
			<output>
				<port id="1">
					<dim>1</dim>
					<dim>256</dim>
					<dim>64</dim>
					<dim>1</dim>
				</port>
			</output>
		</layer>
		<layer id="248" name="instancenorm_8/add_1/Broadcast/2709" precision="FP32" type="Tile">
			<data axis="3" tiles="64"/>
			<input>
				<port id="0">
					<dim>1</dim>
					<dim>256</dim>
					<dim>64</dim>
					<dim>1</dim>
				</port>
			</input>
			<output>
				<port id="1">
					<dim>1</dim>
					<dim>256</dim>
					<dim>64</dim>
					<dim>64</dim>
				</port>
			</output>
		</layer>
		<layer id="249" name="instancenorm_8/add_1" precision="FP32" type="Eltwise">
			<data operation="sum"/>
			<input>
				<port id="0">
					<dim>1</dim>
					<dim>256</dim>
					<dim>64</dim>
					<dim>64</dim>
				</port>
				<port id="1">
					<dim>1</dim>
					<dim>256</dim>
					<dim>64</dim>
					<dim>64</dim>
				</port>
			</input>
			<output>
				<port id="2">
					<dim>1</dim>
					<dim>256</dim>
					<dim>64</dim>
					<dim>64</dim>
				</port>
			</output>
		</layer>
		<layer id="250" name="Add_11" precision="FP32" type="Eltwise">
			<data operation="sum"/>
			<input>
				<port id="0">
					<dim>1</dim>
					<dim>256</dim>
					<dim>64</dim>
					<dim>64</dim>
				</port>
				<port id="1">
					<dim>1</dim>
					<dim>256</dim>
					<dim>64</dim>
					<dim>64</dim>
				</port>
			</input>
			<output>
				<port id="2">
					<dim>1</dim>
					<dim>256</dim>
					<dim>64</dim>
					<dim>64</dim>
				</port>
			</output>
		</layer>
		<layer id="251" name="MirrorPad_7" precision="FP32" type="Pad">
			<data pad_mode="reflect" pad_value="0.0" pads_begin="0,0,1,1" pads_end="0,0,1,1"/>
			<input>
				<port id="0">
					<dim>1</dim>
					<dim>256</dim>
					<dim>64</dim>
					<dim>64</dim>
				</port>
			</input>
			<output>
				<port id="1">
					<dim>1</dim>
					<dim>256</dim>
					<dim>66</dim>
					<dim>66</dim>
				</port>
			</output>
		</layer>
		<layer id="252" name="convolution_9" precision="FP32" type="Convolution">
			<data auto_pad="valid" dilations="1,1" group="1" kernel="3,3" output="256" pads_begin="0,0" pads_end="0,0" strides="1,1"/>
			<input>
				<port id="0">
					<dim>1</dim>
					<dim>256</dim>
					<dim>66</dim>
					<dim>66</dim>
				</port>
			</input>
			<output>
				<port id="2">
					<dim>1</dim>
					<dim>256</dim>
					<dim>64</dim>
					<dim>64</dim>
				</port>
			</output>
			<blobs>
				<weights offset="15679488" size="2359296"/>
			</blobs>
		</layer>
		<layer id="253" name="convolution_9/Permute_2266" precision="FP32" type="Permute">
			<data order="0,2,3,1"/>
			<input>
				<port id="0">
					<dim>1</dim>
					<dim>256</dim>
					<dim>64</dim>
					<dim>64</dim>
				</port>
			</input>
			<output>
				<port id="1">
					<dim>1</dim>
					<dim>64</dim>
					<dim>64</dim>
					<dim>256</dim>
				</port>
			</output>
		</layer>
		<layer id="254" name="Const_46/Output_0/Data_/copy_const" precision="FP32" type="Const">
			<output>
				<port id="1">
					<dim>1</dim>
					<dim>1</dim>
					<dim>1</dim>
					<dim>256</dim>
				</port>
			</output>
			<blobs>
				<custom offset="18038784" size="1024"/>
			</blobs>
		</layer>
		<layer id="255" name="Add_12/Broadcast/" precision="FP32" type="Tile">
			<data axis="1" tiles="64"/>
			<input>
				<port id="0">
					<dim>1</dim>
					<dim>1</dim>
					<dim>1</dim>
					<dim>256</dim>
				</port>
			</input>
			<output>
				<port id="1">
					<dim>1</dim>
					<dim>64</dim>
					<dim>1</dim>
					<dim>256</dim>
				</port>
			</output>
		</layer>
		<layer id="256" name="Add_12/Broadcast/2529" precision="FP32" type="Tile">
			<data axis="2" tiles="64"/>
			<input>
				<port id="0">
					<dim>1</dim>
					<dim>64</dim>
					<dim>1</dim>
					<dim>256</dim>
				</port>
			</input>
			<output>
				<port id="1">
					<dim>1</dim>
					<dim>64</dim>
					<dim>64</dim>
					<dim>256</dim>
				</port>
			</output>
		</layer>
		<layer id="257" name="Add_12" precision="FP32" type="Eltwise">
			<data operation="sum"/>
			<input>
				<port id="0">
					<dim>1</dim>
					<dim>64</dim>
					<dim>64</dim>
					<dim>256</dim>
				</port>
				<port id="1">
					<dim>1</dim>
					<dim>64</dim>
					<dim>64</dim>
					<dim>256</dim>
				</port>
			</input>
			<output>
				<port id="2">
					<dim>1</dim>
					<dim>64</dim>
					<dim>64</dim>
					<dim>256</dim>
				</port>
			</output>
		</layer>
		<layer id="258" name="transpose_29" precision="FP32" type="Permute">
			<data order="0,3,1,2"/>
			<input>
				<port id="0">
					<dim>1</dim>
					<dim>64</dim>
					<dim>64</dim>
					<dim>256</dim>
				</port>
			</input>
			<output>
				<port id="1">
					<dim>1</dim>
					<dim>256</dim>
					<dim>64</dim>
					<dim>64</dim>
				</port>
			</output>
		</layer>
		<layer id="259" name="moments_9/mean" precision="FP32" type="Pooling">
			<data exclude-pad="true" kernel="64,64" pads_begin="0,0" pads_end="0,0" pool-method="avg" rounding-type="ceil" strides="1,1"/>
			<input>
				<port id="0">
					<dim>1</dim>
					<dim>256</dim>
					<dim>64</dim>
					<dim>64</dim>
				</port>
			</input>
			<output>
				<port id="1">
					<dim>1</dim>
					<dim>256</dim>
					<dim>1</dim>
					<dim>1</dim>
				</port>
			</output>
		</layer>
		<layer id="260" name="moments_9/SquaredDifference/negate_" precision="FP32" type="Power">
			<data power="1" scale="-1" shift="0"/>
			<input>
				<port id="0">
					<dim>1</dim>
					<dim>256</dim>
					<dim>1</dim>
					<dim>1</dim>
				</port>
			</input>
			<output>
				<port id="1">
					<dim>1</dim>
					<dim>256</dim>
					<dim>1</dim>
					<dim>1</dim>
				</port>
			</output>
		</layer>
		<layer id="261" name="moments_9/SquaredDifference/add_/Broadcast/" precision="FP32" type="Tile">
			<data axis="2" tiles="64"/>
			<input>
				<port id="0">
					<dim>1</dim>
					<dim>256</dim>
					<dim>1</dim>
					<dim>1</dim>
				</port>
			</input>
			<output>
				<port id="1">
					<dim>1</dim>
					<dim>256</dim>
					<dim>64</dim>
					<dim>1</dim>
				</port>
			</output>
		</layer>
		<layer id="262" name="moments_9/SquaredDifference/add_/Broadcast/2645" precision="FP32" type="Tile">
			<data axis="3" tiles="64"/>
			<input>
				<port id="0">
					<dim>1</dim>
					<dim>256</dim>
					<dim>64</dim>
					<dim>1</dim>
				</port>
			</input>
			<output>
				<port id="1">
					<dim>1</dim>
					<dim>256</dim>
					<dim>64</dim>
					<dim>64</dim>
				</port>
			</output>
		</layer>
		<layer id="263" name="moments_9/SquaredDifference/add_" precision="FP32" type="Eltwise">
			<data operation="sum"/>
			<input>
				<port id="0">
					<dim>1</dim>
					<dim>256</dim>
					<dim>64</dim>
					<dim>64</dim>
				</port>
				<port id="1">
					<dim>1</dim>
					<dim>256</dim>
					<dim>64</dim>
					<dim>64</dim>
				</port>
			</input>
			<output>
				<port id="2">
					<dim>1</dim>
					<dim>256</dim>
					<dim>64</dim>
					<dim>64</dim>
				</port>
			</output>
		</layer>
		<layer id="264" name="moments_9/SquaredDifference/squared_" precision="FP32" type="Power">
			<data power="2" scale="1" shift="0"/>
			<input>
				<port id="0">
					<dim>1</dim>
					<dim>256</dim>
					<dim>64</dim>
					<dim>64</dim>
				</port>
			</input>
			<output>
				<port id="1">
					<dim>1</dim>
					<dim>256</dim>
					<dim>64</dim>
					<dim>64</dim>
				</port>
			</output>
		</layer>
		<layer id="265" name="moments_9/variance" precision="FP32" type="Pooling">
			<data exclude-pad="true" kernel="64,64" pads_begin="0,0" pads_end="0,0" pool-method="avg" rounding-type="ceil" strides="1,1"/>
			<input>
				<port id="0">
					<dim>1</dim>
					<dim>256</dim>
					<dim>64</dim>
					<dim>64</dim>
				</port>
			</input>
			<output>
				<port id="1">
					<dim>1</dim>
					<dim>256</dim>
					<dim>1</dim>
					<dim>1</dim>
				</port>
			</output>
		</layer>
		<layer id="266" name="instancenorm_9/add" precision="FP32" type="Power">
			<data power="1" scale="1" shift="9.999999747378752e-06"/>
			<input>
				<port id="0">
					<dim>1</dim>
					<dim>256</dim>
					<dim>1</dim>
					<dim>1</dim>
				</port>
			</input>
			<output>
				<port id="1">
					<dim>1</dim>
					<dim>256</dim>
					<dim>1</dim>
					<dim>1</dim>
				</port>
			</output>
		</layer>
		<layer id="267" name="instancenorm_9/Rsqrt" precision="FP32" type="Power">
			<data power="-0.5" scale="1" shift="0"/>
			<input>
				<port id="0">
					<dim>1</dim>
					<dim>256</dim>
					<dim>1</dim>
					<dim>1</dim>
				</port>
			</input>
			<output>
				<port id="1">
					<dim>1</dim>
					<dim>256</dim>
					<dim>1</dim>
					<dim>1</dim>
				</port>
			</output>
		</layer>
		<layer id="268" name="instancenorm_9/mul" precision="FP32" type="ScaleShift">
			<input>
				<port id="0">
					<dim>1</dim>
					<dim>256</dim>
					<dim>1</dim>
					<dim>1</dim>
				</port>
			</input>
			<output>
				<port id="3">
					<dim>1</dim>
					<dim>256</dim>
					<dim>1</dim>
					<dim>1</dim>
				</port>
			</output>
			<blobs>
				<weights offset="1515520" size="1024"/>
				<biases offset="1516544" size="1024"/>
			</blobs>
		</layer>
		<layer id="269" name="instancenorm_9/mul_1/Broadcast/" precision="FP32" type="Tile">
			<data axis="2" tiles="64"/>
			<input>
				<port id="0">
					<dim>1</dim>
					<dim>256</dim>
					<dim>1</dim>
					<dim>1</dim>
				</port>
			</input>
			<output>
				<port id="1">
					<dim>1</dim>
					<dim>256</dim>
					<dim>64</dim>
					<dim>1</dim>
				</port>
			</output>
		</layer>
		<layer id="270" name="instancenorm_9/mul_1/Broadcast/2533" precision="FP32" type="Tile">
			<data axis="3" tiles="64"/>
			<input>
				<port id="0">
					<dim>1</dim>
					<dim>256</dim>
					<dim>64</dim>
					<dim>1</dim>
				</port>
			</input>
			<output>
				<port id="1">
					<dim>1</dim>
					<dim>256</dim>
					<dim>64</dim>
					<dim>64</dim>
				</port>
			</output>
		</layer>
		<layer id="271" name="instancenorm_9/mul_1" precision="FP32" type="Eltwise">
			<data operation="mul"/>
			<input>
				<port id="0">
					<dim>1</dim>
					<dim>256</dim>
					<dim>64</dim>
					<dim>64</dim>
				</port>
				<port id="1">
					<dim>1</dim>
					<dim>256</dim>
					<dim>64</dim>
					<dim>64</dim>
				</port>
			</input>
			<output>
				<port id="2">
					<dim>1</dim>
					<dim>256</dim>
					<dim>64</dim>
					<dim>64</dim>
				</port>
			</output>
		</layer>
		<layer id="272" name="instancenorm_9/mul_2" precision="FP32" type="Eltwise">
			<data operation="mul"/>
			<input>
				<port id="0">
					<dim>1</dim>
					<dim>256</dim>
					<dim>1</dim>
					<dim>1</dim>
				</port>
				<port id="1">
					<dim>1</dim>
					<dim>256</dim>
					<dim>1</dim>
					<dim>1</dim>
				</port>
			</input>
			<output>
				<port id="2">
					<dim>1</dim>
					<dim>256</dim>
					<dim>1</dim>
					<dim>1</dim>
				</port>
			</output>
		</layer>
		<layer id="273" name="instancenorm_9/sub/negate_" precision="FP32" type="Power">
			<data power="1" scale="-1" shift="0"/>
			<input>
				<port id="0">
					<dim>1</dim>
					<dim>256</dim>
					<dim>1</dim>
					<dim>1</dim>
				</port>
			</input>
			<output>
				<port id="1">
					<dim>1</dim>
					<dim>256</dim>
					<dim>1</dim>
					<dim>1</dim>
				</port>
			</output>
		</layer>
		<layer id="274" name="instancenorm_9/sub/add_" precision="FP32" type="ScaleShift">
			<input>
				<port id="0">
					<dim>1</dim>
					<dim>256</dim>
					<dim>1</dim>
					<dim>1</dim>
				</port>
			</input>
			<output>
				<port id="3">
					<dim>1</dim>
					<dim>256</dim>
					<dim>1</dim>
					<dim>1</dim>
				</port>
			</output>
			<blobs>
				<weights offset="1515520" size="1024"/>
				<biases offset="1516544" size="1024"/>
			</blobs>
		</layer>
		<layer id="275" name="instancenorm_9/add_1/Broadcast/" precision="FP32" type="Tile">
			<data axis="2" tiles="64"/>
			<input>
				<port id="0">
					<dim>1</dim>
					<dim>256</dim>
					<dim>1</dim>
					<dim>1</dim>
				</port>
			</input>
			<output>
				<port id="1">
					<dim>1</dim>
					<dim>256</dim>
					<dim>64</dim>
					<dim>1</dim>
				</port>
			</output>
		</layer>
		<layer id="276" name="instancenorm_9/add_1/Broadcast/2765" precision="FP32" type="Tile">
			<data axis="3" tiles="64"/>
			<input>
				<port id="0">
					<dim>1</dim>
					<dim>256</dim>
					<dim>64</dim>
					<dim>1</dim>
				</port>
			</input>
			<output>
				<port id="1">
					<dim>1</dim>
					<dim>256</dim>
					<dim>64</dim>
					<dim>64</dim>
				</port>
			</output>
		</layer>
		<layer id="277" name="instancenorm_9/add_1" precision="FP32" type="Eltwise">
			<data operation="sum"/>
			<input>
				<port id="0">
					<dim>1</dim>
					<dim>256</dim>
					<dim>64</dim>
					<dim>64</dim>
				</port>
				<port id="1">
					<dim>1</dim>
					<dim>256</dim>
					<dim>64</dim>
					<dim>64</dim>
				</port>
			</input>
			<output>
				<port id="2">
					<dim>1</dim>
					<dim>256</dim>
					<dim>64</dim>
					<dim>64</dim>
				</port>
			</output>
		</layer>
		<layer id="278" name="Relu_6" precision="FP32" type="ReLU">
			<input>
				<port id="0">
					<dim>1</dim>
					<dim>256</dim>
					<dim>64</dim>
					<dim>64</dim>
				</port>
			</input>
			<output>
				<port id="1">
					<dim>1</dim>
					<dim>256</dim>
					<dim>64</dim>
					<dim>64</dim>
				</port>
			</output>
		</layer>
		<layer id="279" name="MirrorPad_8" precision="FP32" type="Pad">
			<data pad_mode="reflect" pad_value="0.0" pads_begin="0,0,1,1" pads_end="0,0,1,1"/>
			<input>
				<port id="0">
					<dim>1</dim>
					<dim>256</dim>
					<dim>64</dim>
					<dim>64</dim>
				</port>
			</input>
			<output>
				<port id="1">
					<dim>1</dim>
					<dim>256</dim>
					<dim>66</dim>
					<dim>66</dim>
				</port>
			</output>
		</layer>
		<layer id="280" name="convolution_10" precision="FP32" type="Convolution">
			<data auto_pad="valid" dilations="1,1" group="1" kernel="3,3" output="256" pads_begin="0,0" pads_end="0,0" strides="1,1"/>
			<input>
				<port id="0">
					<dim>1</dim>
					<dim>256</dim>
					<dim>66</dim>
					<dim>66</dim>
				</port>
			</input>
			<output>
				<port id="2">
					<dim>1</dim>
					<dim>256</dim>
					<dim>64</dim>
					<dim>64</dim>
				</port>
			</output>
			<blobs>
				<weights offset="18039808" size="2359296"/>
			</blobs>
		</layer>
		<layer id="281" name="convolution_10/Permute_2282" precision="FP32" type="Permute">
			<data order="0,2,3,1"/>
			<input>
				<port id="0">
					<dim>1</dim>
					<dim>256</dim>
					<dim>64</dim>
					<dim>64</dim>
				</port>
			</input>
			<output>
				<port id="1">
					<dim>1</dim>
					<dim>64</dim>
					<dim>64</dim>
					<dim>256</dim>
				</port>
			</output>
		</layer>
		<layer id="282" name="Const_51/Output_0/Data_/copy_const" precision="FP32" type="Const">
			<output>
				<port id="1">
					<dim>1</dim>
					<dim>1</dim>
					<dim>1</dim>
					<dim>256</dim>
				</port>
			</output>
			<blobs>
				<custom offset="20399104" size="1024"/>
			</blobs>
		</layer>
		<layer id="283" name="Add_13/Broadcast/" precision="FP32" type="Tile">
			<data axis="1" tiles="64"/>
			<input>
				<port id="0">
					<dim>1</dim>
					<dim>1</dim>
					<dim>1</dim>
					<dim>256</dim>
				</port>
			</input>
			<output>
				<port id="1">
					<dim>1</dim>
					<dim>64</dim>
					<dim>1</dim>
					<dim>256</dim>
				</port>
			</output>
		</layer>
		<layer id="284" name="Add_13/Broadcast/2433" precision="FP32" type="Tile">
			<data axis="2" tiles="64"/>
			<input>
				<port id="0">
					<dim>1</dim>
					<dim>64</dim>
					<dim>1</dim>
					<dim>256</dim>
				</port>
			</input>
			<output>
				<port id="1">
					<dim>1</dim>
					<dim>64</dim>
					<dim>64</dim>
					<dim>256</dim>
				</port>
			</output>
		</layer>
		<layer id="285" name="Add_13" precision="FP32" type="Eltwise">
			<data operation="sum"/>
			<input>
				<port id="0">
					<dim>1</dim>
					<dim>64</dim>
					<dim>64</dim>
					<dim>256</dim>
				</port>
				<port id="1">
					<dim>1</dim>
					<dim>64</dim>
					<dim>64</dim>
					<dim>256</dim>
				</port>
			</input>
			<output>
				<port id="2">
					<dim>1</dim>
					<dim>64</dim>
					<dim>64</dim>
					<dim>256</dim>
				</port>
			</output>
		</layer>
		<layer id="286" name="transpose_32" precision="FP32" type="Permute">
			<data order="0,3,1,2"/>
			<input>
				<port id="0">
					<dim>1</dim>
					<dim>64</dim>
					<dim>64</dim>
					<dim>256</dim>
				</port>
			</input>
			<output>
				<port id="1">
					<dim>1</dim>
					<dim>256</dim>
					<dim>64</dim>
					<dim>64</dim>
				</port>
			</output>
		</layer>
		<layer id="287" name="moments_10/mean" precision="FP32" type="Pooling">
			<data exclude-pad="true" kernel="64,64" pads_begin="0,0" pads_end="0,0" pool-method="avg" rounding-type="ceil" strides="1,1"/>
			<input>
				<port id="0">
					<dim>1</dim>
					<dim>256</dim>
					<dim>64</dim>
					<dim>64</dim>
				</port>
			</input>
			<output>
				<port id="1">
					<dim>1</dim>
					<dim>256</dim>
					<dim>1</dim>
					<dim>1</dim>
				</port>
			</output>
		</layer>
		<layer id="288" name="moments_10/SquaredDifference/negate_" precision="FP32" type="Power">
			<data power="1" scale="-1" shift="0"/>
			<input>
				<port id="0">
					<dim>1</dim>
					<dim>256</dim>
					<dim>1</dim>
					<dim>1</dim>
				</port>
			</input>
			<output>
				<port id="1">
					<dim>1</dim>
					<dim>256</dim>
					<dim>1</dim>
					<dim>1</dim>
				</port>
			</output>
		</layer>
		<layer id="289" name="moments_10/SquaredDifference/add_/Broadcast/" precision="FP32" type="Tile">
			<data axis="2" tiles="64"/>
			<input>
				<port id="0">
					<dim>1</dim>
					<dim>256</dim>
					<dim>1</dim>
					<dim>1</dim>
				</port>
			</input>
			<output>
				<port id="1">
					<dim>1</dim>
					<dim>256</dim>
					<dim>64</dim>
					<dim>1</dim>
				</port>
			</output>
		</layer>
		<layer id="290" name="moments_10/SquaredDifference/add_/Broadcast/2525" precision="FP32" type="Tile">
			<data axis="3" tiles="64"/>
			<input>
				<port id="0">
					<dim>1</dim>
					<dim>256</dim>
					<dim>64</dim>
					<dim>1</dim>
				</port>
			</input>
			<output>
				<port id="1">
					<dim>1</dim>
					<dim>256</dim>
					<dim>64</dim>
					<dim>64</dim>
				</port>
			</output>
		</layer>
		<layer id="291" name="moments_10/SquaredDifference/add_" precision="FP32" type="Eltwise">
			<data operation="sum"/>
			<input>
				<port id="0">
					<dim>1</dim>
					<dim>256</dim>
					<dim>64</dim>
					<dim>64</dim>
				</port>
				<port id="1">
					<dim>1</dim>
					<dim>256</dim>
					<dim>64</dim>
					<dim>64</dim>
				</port>
			</input>
			<output>
				<port id="2">
					<dim>1</dim>
					<dim>256</dim>
					<dim>64</dim>
					<dim>64</dim>
				</port>
			</output>
		</layer>
		<layer id="292" name="moments_10/SquaredDifference/squared_" precision="FP32" type="Power">
			<data power="2" scale="1" shift="0"/>
			<input>
				<port id="0">
					<dim>1</dim>
					<dim>256</dim>
					<dim>64</dim>
					<dim>64</dim>
				</port>
			</input>
			<output>
				<port id="1">
					<dim>1</dim>
					<dim>256</dim>
					<dim>64</dim>
					<dim>64</dim>
				</port>
			</output>
		</layer>
		<layer id="293" name="moments_10/variance" precision="FP32" type="Pooling">
			<data exclude-pad="true" kernel="64,64" pads_begin="0,0" pads_end="0,0" pool-method="avg" rounding-type="ceil" strides="1,1"/>
			<input>
				<port id="0">
					<dim>1</dim>
					<dim>256</dim>
					<dim>64</dim>
					<dim>64</dim>
				</port>
			</input>
			<output>
				<port id="1">
					<dim>1</dim>
					<dim>256</dim>
					<dim>1</dim>
					<dim>1</dim>
				</port>
			</output>
		</layer>
		<layer id="294" name="instancenorm_10/add" precision="FP32" type="Power">
			<data power="1" scale="1" shift="9.999999747378752e-06"/>
			<input>
				<port id="0">
					<dim>1</dim>
					<dim>256</dim>
					<dim>1</dim>
					<dim>1</dim>
				</port>
			</input>
			<output>
				<port id="1">
					<dim>1</dim>
					<dim>256</dim>
					<dim>1</dim>
					<dim>1</dim>
				</port>
			</output>
		</layer>
		<layer id="295" name="instancenorm_10/Rsqrt" precision="FP32" type="Power">
			<data power="-0.5" scale="1" shift="0"/>
			<input>
				<port id="0">
					<dim>1</dim>
					<dim>256</dim>
					<dim>1</dim>
					<dim>1</dim>
				</port>
			</input>
			<output>
				<port id="1">
					<dim>1</dim>
					<dim>256</dim>
					<dim>1</dim>
					<dim>1</dim>
				</port>
			</output>
		</layer>
		<layer id="296" name="instancenorm_10/mul" precision="FP32" type="ScaleShift">
			<input>
				<port id="0">
					<dim>1</dim>
					<dim>256</dim>
					<dim>1</dim>
					<dim>1</dim>
				</port>
			</input>
			<output>
				<port id="3">
					<dim>1</dim>
					<dim>256</dim>
					<dim>1</dim>
					<dim>1</dim>
				</port>
			</output>
			<blobs>
				<weights offset="1515520" size="1024"/>
				<biases offset="1516544" size="1024"/>
			</blobs>
		</layer>
		<layer id="297" name="instancenorm_10/mul_1/Broadcast/" precision="FP32" type="Tile">
			<data axis="2" tiles="64"/>
			<input>
				<port id="0">
					<dim>1</dim>
					<dim>256</dim>
					<dim>1</dim>
					<dim>1</dim>
				</port>
			</input>
			<output>
				<port id="1">
					<dim>1</dim>
					<dim>256</dim>
					<dim>64</dim>
					<dim>1</dim>
				</port>
			</output>
		</layer>
		<layer id="298" name="instancenorm_10/mul_1/Broadcast/2685" precision="FP32" type="Tile">
			<data axis="3" tiles="64"/>
			<input>
				<port id="0">
					<dim>1</dim>
					<dim>256</dim>
					<dim>64</dim>
					<dim>1</dim>
				</port>
			</input>
			<output>
				<port id="1">
					<dim>1</dim>
					<dim>256</dim>
					<dim>64</dim>
					<dim>64</dim>
				</port>
			</output>
		</layer>
		<layer id="299" name="instancenorm_10/mul_1" precision="FP32" type="Eltwise">
			<data operation="mul"/>
			<input>
				<port id="0">
					<dim>1</dim>
					<dim>256</dim>
					<dim>64</dim>
					<dim>64</dim>
				</port>
				<port id="1">
					<dim>1</dim>
					<dim>256</dim>
					<dim>64</dim>
					<dim>64</dim>
				</port>
			</input>
			<output>
				<port id="2">
					<dim>1</dim>
					<dim>256</dim>
					<dim>64</dim>
					<dim>64</dim>
				</port>
			</output>
		</layer>
		<layer id="300" name="instancenorm_10/mul_2" precision="FP32" type="Eltwise">
			<data operation="mul"/>
			<input>
				<port id="0">
					<dim>1</dim>
					<dim>256</dim>
					<dim>1</dim>
					<dim>1</dim>
				</port>
				<port id="1">
					<dim>1</dim>
					<dim>256</dim>
					<dim>1</dim>
					<dim>1</dim>
				</port>
			</input>
			<output>
				<port id="2">
					<dim>1</dim>
					<dim>256</dim>
					<dim>1</dim>
					<dim>1</dim>
				</port>
			</output>
		</layer>
		<layer id="301" name="instancenorm_10/sub/negate_" precision="FP32" type="Power">
			<data power="1" scale="-1" shift="0"/>
			<input>
				<port id="0">
					<dim>1</dim>
					<dim>256</dim>
					<dim>1</dim>
					<dim>1</dim>
				</port>
			</input>
			<output>
				<port id="1">
					<dim>1</dim>
					<dim>256</dim>
					<dim>1</dim>
					<dim>1</dim>
				</port>
			</output>
		</layer>
		<layer id="302" name="instancenorm_10/sub/add_" precision="FP32" type="ScaleShift">
			<input>
				<port id="0">
					<dim>1</dim>
					<dim>256</dim>
					<dim>1</dim>
					<dim>1</dim>
				</port>
			</input>
			<output>
				<port id="3">
					<dim>1</dim>
					<dim>256</dim>
					<dim>1</dim>
					<dim>1</dim>
				</port>
			</output>
			<blobs>
				<weights offset="1515520" size="1024"/>
				<biases offset="1516544" size="1024"/>
			</blobs>
		</layer>
		<layer id="303" name="instancenorm_10/add_1/Broadcast/" precision="FP32" type="Tile">
			<data axis="2" tiles="64"/>
			<input>
				<port id="0">
					<dim>1</dim>
					<dim>256</dim>
					<dim>1</dim>
					<dim>1</dim>
				</port>
			</input>
			<output>
				<port id="1">
					<dim>1</dim>
					<dim>256</dim>
					<dim>64</dim>
					<dim>1</dim>
				</port>
			</output>
		</layer>
		<layer id="304" name="instancenorm_10/add_1/Broadcast/2601" precision="FP32" type="Tile">
			<data axis="3" tiles="64"/>
			<input>
				<port id="0">
					<dim>1</dim>
					<dim>256</dim>
					<dim>64</dim>
					<dim>1</dim>
				</port>
			</input>
			<output>
				<port id="1">
					<dim>1</dim>
					<dim>256</dim>
					<dim>64</dim>
					<dim>64</dim>
				</port>
			</output>
		</layer>
		<layer id="305" name="instancenorm_10/add_1" precision="FP32" type="Eltwise">
			<data operation="sum"/>
			<input>
				<port id="0">
					<dim>1</dim>
					<dim>256</dim>
					<dim>64</dim>
					<dim>64</dim>
				</port>
				<port id="1">
					<dim>1</dim>
					<dim>256</dim>
					<dim>64</dim>
					<dim>64</dim>
				</port>
			</input>
			<output>
				<port id="2">
					<dim>1</dim>
					<dim>256</dim>
					<dim>64</dim>
					<dim>64</dim>
				</port>
			</output>
		</layer>
		<layer id="306" name="Add_14" precision="FP32" type="Eltwise">
			<data operation="sum"/>
			<input>
				<port id="0">
					<dim>1</dim>
					<dim>256</dim>
					<dim>64</dim>
					<dim>64</dim>
				</port>
				<port id="1">
					<dim>1</dim>
					<dim>256</dim>
					<dim>64</dim>
					<dim>64</dim>
				</port>
			</input>
			<output>
				<port id="2">
					<dim>1</dim>
					<dim>256</dim>
					<dim>64</dim>
					<dim>64</dim>
				</port>
			</output>
		</layer>
		<layer id="307" name="MirrorPad_9" precision="FP32" type="Pad">
			<data pad_mode="reflect" pad_value="0.0" pads_begin="0,0,1,1" pads_end="0,0,1,1"/>
			<input>
				<port id="0">
					<dim>1</dim>
					<dim>256</dim>
					<dim>64</dim>
					<dim>64</dim>
				</port>
			</input>
			<output>
				<port id="1">
					<dim>1</dim>
					<dim>256</dim>
					<dim>66</dim>
					<dim>66</dim>
				</port>
			</output>
		</layer>
		<layer id="308" name="convolution_11" precision="FP32" type="Convolution">
			<data auto_pad="valid" dilations="1,1" group="1" kernel="3,3" output="256" pads_begin="0,0" pads_end="0,0" strides="1,1"/>
			<input>
				<port id="0">
					<dim>1</dim>
					<dim>256</dim>
					<dim>66</dim>
					<dim>66</dim>
				</port>
			</input>
			<output>
				<port id="2">
					<dim>1</dim>
					<dim>256</dim>
					<dim>64</dim>
					<dim>64</dim>
				</port>
			</output>
			<blobs>
				<weights offset="20400128" size="2359296"/>
			</blobs>
		</layer>
		<layer id="309" name="convolution_11/Permute_2298" precision="FP32" type="Permute">
			<data order="0,2,3,1"/>
			<input>
				<port id="0">
					<dim>1</dim>
					<dim>256</dim>
					<dim>64</dim>
					<dim>64</dim>
				</port>
			</input>
			<output>
				<port id="1">
					<dim>1</dim>
					<dim>64</dim>
					<dim>64</dim>
					<dim>256</dim>
				</port>
			</output>
		</layer>
		<layer id="310" name="Const_56/Output_0/Data_/copy_const" precision="FP32" type="Const">
			<output>
				<port id="1">
					<dim>1</dim>
					<dim>1</dim>
					<dim>1</dim>
					<dim>256</dim>
				</port>
			</output>
			<blobs>
				<custom offset="22759424" size="1024"/>
			</blobs>
		</layer>
		<layer id="311" name="Add_15/Broadcast/" precision="FP32" type="Tile">
			<data axis="1" tiles="64"/>
			<input>
				<port id="0">
					<dim>1</dim>
					<dim>1</dim>
					<dim>1</dim>
					<dim>256</dim>
				</port>
			</input>
			<output>
				<port id="1">
					<dim>1</dim>
					<dim>64</dim>
					<dim>1</dim>
					<dim>256</dim>
				</port>
			</output>
		</layer>
		<layer id="312" name="Add_15/Broadcast/2485" precision="FP32" type="Tile">
			<data axis="2" tiles="64"/>
			<input>
				<port id="0">
					<dim>1</dim>
					<dim>64</dim>
					<dim>1</dim>
					<dim>256</dim>
				</port>
			</input>
			<output>
				<port id="1">
					<dim>1</dim>
					<dim>64</dim>
					<dim>64</dim>
					<dim>256</dim>
				</port>
			</output>
		</layer>
		<layer id="313" name="Add_15" precision="FP32" type="Eltwise">
			<data operation="sum"/>
			<input>
				<port id="0">
					<dim>1</dim>
					<dim>64</dim>
					<dim>64</dim>
					<dim>256</dim>
				</port>
				<port id="1">
					<dim>1</dim>
					<dim>64</dim>
					<dim>64</dim>
					<dim>256</dim>
				</port>
			</input>
			<output>
				<port id="2">
					<dim>1</dim>
					<dim>64</dim>
					<dim>64</dim>
					<dim>256</dim>
				</port>
			</output>
		</layer>
		<layer id="314" name="transpose_35" precision="FP32" type="Permute">
			<data order="0,3,1,2"/>
			<input>
				<port id="0">
					<dim>1</dim>
					<dim>64</dim>
					<dim>64</dim>
					<dim>256</dim>
				</port>
			</input>
			<output>
				<port id="1">
					<dim>1</dim>
					<dim>256</dim>
					<dim>64</dim>
					<dim>64</dim>
				</port>
			</output>
		</layer>
		<layer id="315" name="moments_11/mean" precision="FP32" type="Pooling">
			<data exclude-pad="true" kernel="64,64" pads_begin="0,0" pads_end="0,0" pool-method="avg" rounding-type="ceil" strides="1,1"/>
			<input>
				<port id="0">
					<dim>1</dim>
					<dim>256</dim>
					<dim>64</dim>
					<dim>64</dim>
				</port>
			</input>
			<output>
				<port id="1">
					<dim>1</dim>
					<dim>256</dim>
					<dim>1</dim>
					<dim>1</dim>
				</port>
			</output>
		</layer>
		<layer id="316" name="moments_11/SquaredDifference/negate_" precision="FP32" type="Power">
			<data power="1" scale="-1" shift="0"/>
			<input>
				<port id="0">
					<dim>1</dim>
					<dim>256</dim>
					<dim>1</dim>
					<dim>1</dim>
				</port>
			</input>
			<output>
				<port id="1">
					<dim>1</dim>
					<dim>256</dim>
					<dim>1</dim>
					<dim>1</dim>
				</port>
			</output>
		</layer>
		<layer id="317" name="moments_11/SquaredDifference/add_/Broadcast/" precision="FP32" type="Tile">
			<data axis="2" tiles="64"/>
			<input>
				<port id="0">
					<dim>1</dim>
					<dim>256</dim>
					<dim>1</dim>
					<dim>1</dim>
				</port>
			</input>
			<output>
				<port id="1">
					<dim>1</dim>
					<dim>256</dim>
					<dim>64</dim>
					<dim>1</dim>
				</port>
			</output>
		</layer>
		<layer id="318" name="moments_11/SquaredDifference/add_/Broadcast/2421" precision="FP32" type="Tile">
			<data axis="3" tiles="64"/>
			<input>
				<port id="0">
					<dim>1</dim>
					<dim>256</dim>
					<dim>64</dim>
					<dim>1</dim>
				</port>
			</input>
			<output>
				<port id="1">
					<dim>1</dim>
					<dim>256</dim>
					<dim>64</dim>
					<dim>64</dim>
				</port>
			</output>
		</layer>
		<layer id="319" name="moments_11/SquaredDifference/add_" precision="FP32" type="Eltwise">
			<data operation="sum"/>
			<input>
				<port id="0">
					<dim>1</dim>
					<dim>256</dim>
					<dim>64</dim>
					<dim>64</dim>
				</port>
				<port id="1">
					<dim>1</dim>
					<dim>256</dim>
					<dim>64</dim>
					<dim>64</dim>
				</port>
			</input>
			<output>
				<port id="2">
					<dim>1</dim>
					<dim>256</dim>
					<dim>64</dim>
					<dim>64</dim>
				</port>
			</output>
		</layer>
		<layer id="320" name="moments_11/SquaredDifference/squared_" precision="FP32" type="Power">
			<data power="2" scale="1" shift="0"/>
			<input>
				<port id="0">
					<dim>1</dim>
					<dim>256</dim>
					<dim>64</dim>
					<dim>64</dim>
				</port>
			</input>
			<output>
				<port id="1">
					<dim>1</dim>
					<dim>256</dim>
					<dim>64</dim>
					<dim>64</dim>
				</port>
			</output>
		</layer>
		<layer id="321" name="moments_11/variance" precision="FP32" type="Pooling">
			<data exclude-pad="true" kernel="64,64" pads_begin="0,0" pads_end="0,0" pool-method="avg" rounding-type="ceil" strides="1,1"/>
			<input>
				<port id="0">
					<dim>1</dim>
					<dim>256</dim>
					<dim>64</dim>
					<dim>64</dim>
				</port>
			</input>
			<output>
				<port id="1">
					<dim>1</dim>
					<dim>256</dim>
					<dim>1</dim>
					<dim>1</dim>
				</port>
			</output>
		</layer>
		<layer id="322" name="instancenorm_11/add" precision="FP32" type="Power">
			<data power="1" scale="1" shift="9.999999747378752e-06"/>
			<input>
				<port id="0">
					<dim>1</dim>
					<dim>256</dim>
					<dim>1</dim>
					<dim>1</dim>
				</port>
			</input>
			<output>
				<port id="1">
					<dim>1</dim>
					<dim>256</dim>
					<dim>1</dim>
					<dim>1</dim>
				</port>
			</output>
		</layer>
		<layer id="323" name="instancenorm_11/Rsqrt" precision="FP32" type="Power">
			<data power="-0.5" scale="1" shift="0"/>
			<input>
				<port id="0">
					<dim>1</dim>
					<dim>256</dim>
					<dim>1</dim>
					<dim>1</dim>
				</port>
			</input>
			<output>
				<port id="1">
					<dim>1</dim>
					<dim>256</dim>
					<dim>1</dim>
					<dim>1</dim>
				</port>
			</output>
		</layer>
		<layer id="324" name="instancenorm_11/mul" precision="FP32" type="ScaleShift">
			<input>
				<port id="0">
					<dim>1</dim>
					<dim>256</dim>
					<dim>1</dim>
					<dim>1</dim>
				</port>
			</input>
			<output>
				<port id="3">
					<dim>1</dim>
					<dim>256</dim>
					<dim>1</dim>
					<dim>1</dim>
				</port>
			</output>
			<blobs>
				<weights offset="1515520" size="1024"/>
				<biases offset="1516544" size="1024"/>
			</blobs>
		</layer>
		<layer id="325" name="instancenorm_11/mul_1/Broadcast/" precision="FP32" type="Tile">
			<data axis="2" tiles="64"/>
			<input>
				<port id="0">
					<dim>1</dim>
					<dim>256</dim>
					<dim>1</dim>
					<dim>1</dim>
				</port>
			</input>
			<output>
				<port id="1">
					<dim>1</dim>
					<dim>256</dim>
					<dim>64</dim>
					<dim>1</dim>
				</port>
			</output>
		</layer>
		<layer id="326" name="instancenorm_11/mul_1/Broadcast/2745" precision="FP32" type="Tile">
			<data axis="3" tiles="64"/>
			<input>
				<port id="0">
					<dim>1</dim>
					<dim>256</dim>
					<dim>64</dim>
					<dim>1</dim>
				</port>
			</input>
			<output>
				<port id="1">
					<dim>1</dim>
					<dim>256</dim>
					<dim>64</dim>
					<dim>64</dim>
				</port>
			</output>
		</layer>
		<layer id="327" name="instancenorm_11/mul_1" precision="FP32" type="Eltwise">
			<data operation="mul"/>
			<input>
				<port id="0">
					<dim>1</dim>
					<dim>256</dim>
					<dim>64</dim>
					<dim>64</dim>
				</port>
				<port id="1">
					<dim>1</dim>
					<dim>256</dim>
					<dim>64</dim>
					<dim>64</dim>
				</port>
			</input>
			<output>
				<port id="2">
					<dim>1</dim>
					<dim>256</dim>
					<dim>64</dim>
					<dim>64</dim>
				</port>
			</output>
		</layer>
		<layer id="328" name="instancenorm_11/mul_2" precision="FP32" type="Eltwise">
			<data operation="mul"/>
			<input>
				<port id="0">
					<dim>1</dim>
					<dim>256</dim>
					<dim>1</dim>
					<dim>1</dim>
				</port>
				<port id="1">
					<dim>1</dim>
					<dim>256</dim>
					<dim>1</dim>
					<dim>1</dim>
				</port>
			</input>
			<output>
				<port id="2">
					<dim>1</dim>
					<dim>256</dim>
					<dim>1</dim>
					<dim>1</dim>
				</port>
			</output>
		</layer>
		<layer id="329" name="instancenorm_11/sub/negate_" precision="FP32" type="Power">
			<data power="1" scale="-1" shift="0"/>
			<input>
				<port id="0">
					<dim>1</dim>
					<dim>256</dim>
					<dim>1</dim>
					<dim>1</dim>
				</port>
			</input>
			<output>
				<port id="1">
					<dim>1</dim>
					<dim>256</dim>
					<dim>1</dim>
					<dim>1</dim>
				</port>
			</output>
		</layer>
		<layer id="330" name="instancenorm_11/sub/add_" precision="FP32" type="ScaleShift">
			<input>
				<port id="0">
					<dim>1</dim>
					<dim>256</dim>
					<dim>1</dim>
					<dim>1</dim>
				</port>
			</input>
			<output>
				<port id="3">
					<dim>1</dim>
					<dim>256</dim>
					<dim>1</dim>
					<dim>1</dim>
				</port>
			</output>
			<blobs>
				<weights offset="1515520" size="1024"/>
				<biases offset="1516544" size="1024"/>
			</blobs>
		</layer>
		<layer id="331" name="instancenorm_11/add_1/Broadcast/" precision="FP32" type="Tile">
			<data axis="2" tiles="64"/>
			<input>
				<port id="0">
					<dim>1</dim>
					<dim>256</dim>
					<dim>1</dim>
					<dim>1</dim>
				</port>
			</input>
			<output>
				<port id="1">
					<dim>1</dim>
					<dim>256</dim>
					<dim>64</dim>
					<dim>1</dim>
				</port>
			</output>
		</layer>
		<layer id="332" name="instancenorm_11/add_1/Broadcast/2585" precision="FP32" type="Tile">
			<data axis="3" tiles="64"/>
			<input>
				<port id="0">
					<dim>1</dim>
					<dim>256</dim>
					<dim>64</dim>
					<dim>1</dim>
				</port>
			</input>
			<output>
				<port id="1">
					<dim>1</dim>
					<dim>256</dim>
					<dim>64</dim>
					<dim>64</dim>
				</port>
			</output>
		</layer>
		<layer id="333" name="instancenorm_11/add_1" precision="FP32" type="Eltwise">
			<data operation="sum"/>
			<input>
				<port id="0">
					<dim>1</dim>
					<dim>256</dim>
					<dim>64</dim>
					<dim>64</dim>
				</port>
				<port id="1">
					<dim>1</dim>
					<dim>256</dim>
					<dim>64</dim>
					<dim>64</dim>
				</port>
			</input>
			<output>
				<port id="2">
					<dim>1</dim>
					<dim>256</dim>
					<dim>64</dim>
					<dim>64</dim>
				</port>
			</output>
		</layer>
		<layer id="334" name="Relu_7" precision="FP32" type="ReLU">
			<input>
				<port id="0">
					<dim>1</dim>
					<dim>256</dim>
					<dim>64</dim>
					<dim>64</dim>
				</port>
			</input>
			<output>
				<port id="1">
					<dim>1</dim>
					<dim>256</dim>
					<dim>64</dim>
					<dim>64</dim>
				</port>
			</output>
		</layer>
		<layer id="335" name="MirrorPad_10" precision="FP32" type="Pad">
			<data pad_mode="reflect" pad_value="0.0" pads_begin="0,0,1,1" pads_end="0,0,1,1"/>
			<input>
				<port id="0">
					<dim>1</dim>
					<dim>256</dim>
					<dim>64</dim>
					<dim>64</dim>
				</port>
			</input>
			<output>
				<port id="1">
					<dim>1</dim>
					<dim>256</dim>
					<dim>66</dim>
					<dim>66</dim>
				</port>
			</output>
		</layer>
		<layer id="336" name="convolution_12" precision="FP32" type="Convolution">
			<data auto_pad="valid" dilations="1,1" group="1" kernel="3,3" output="256" pads_begin="0,0" pads_end="0,0" strides="1,1"/>
			<input>
				<port id="0">
					<dim>1</dim>
					<dim>256</dim>
					<dim>66</dim>
					<dim>66</dim>
				</port>
			</input>
			<output>
				<port id="2">
					<dim>1</dim>
					<dim>256</dim>
					<dim>64</dim>
					<dim>64</dim>
				</port>
			</output>
			<blobs>
				<weights offset="22760448" size="2359296"/>
			</blobs>
		</layer>
		<layer id="337" name="convolution_12/Permute_2262" precision="FP32" type="Permute">
			<data order="0,2,3,1"/>
			<input>
				<port id="0">
					<dim>1</dim>
					<dim>256</dim>
					<dim>64</dim>
					<dim>64</dim>
				</port>
			</input>
			<output>
				<port id="1">
					<dim>1</dim>
					<dim>64</dim>
					<dim>64</dim>
					<dim>256</dim>
				</port>
			</output>
		</layer>
		<layer id="338" name="Const_61/Output_0/Data_/copy_const" precision="FP32" type="Const">
			<output>
				<port id="1">
					<dim>1</dim>
					<dim>1</dim>
					<dim>1</dim>
					<dim>256</dim>
				</port>
			</output>
			<blobs>
				<custom offset="25119744" size="1024"/>
			</blobs>
		</layer>
		<layer id="339" name="Add_16/Broadcast/" precision="FP32" type="Tile">
			<data axis="1" tiles="64"/>
			<input>
				<port id="0">
					<dim>1</dim>
					<dim>1</dim>
					<dim>1</dim>
					<dim>256</dim>
				</port>
			</input>
			<output>
				<port id="1">
					<dim>1</dim>
					<dim>64</dim>
					<dim>1</dim>
					<dim>256</dim>
				</port>
			</output>
		</layer>
		<layer id="340" name="Add_16/Broadcast/2565" precision="FP32" type="Tile">
			<data axis="2" tiles="64"/>
			<input>
				<port id="0">
					<dim>1</dim>
					<dim>64</dim>
					<dim>1</dim>
					<dim>256</dim>
				</port>
			</input>
			<output>
				<port id="1">
					<dim>1</dim>
					<dim>64</dim>
					<dim>64</dim>
					<dim>256</dim>
				</port>
			</output>
		</layer>
		<layer id="341" name="Add_16" precision="FP32" type="Eltwise">
			<data operation="sum"/>
			<input>
				<port id="0">
					<dim>1</dim>
					<dim>64</dim>
					<dim>64</dim>
					<dim>256</dim>
				</port>
				<port id="1">
					<dim>1</dim>
					<dim>64</dim>
					<dim>64</dim>
					<dim>256</dim>
				</port>
			</input>
			<output>
				<port id="2">
					<dim>1</dim>
					<dim>64</dim>
					<dim>64</dim>
					<dim>256</dim>
				</port>
			</output>
		</layer>
		<layer id="342" name="transpose_38" precision="FP32" type="Permute">
			<data order="0,3,1,2"/>
			<input>
				<port id="0">
					<dim>1</dim>
					<dim>64</dim>
					<dim>64</dim>
					<dim>256</dim>
				</port>
			</input>
			<output>
				<port id="1">
					<dim>1</dim>
					<dim>256</dim>
					<dim>64</dim>
					<dim>64</dim>
				</port>
			</output>
		</layer>
		<layer id="343" name="moments_12/mean" precision="FP32" type="Pooling">
			<data exclude-pad="true" kernel="64,64" pads_begin="0,0" pads_end="0,0" pool-method="avg" rounding-type="ceil" strides="1,1"/>
			<input>
				<port id="0">
					<dim>1</dim>
					<dim>256</dim>
					<dim>64</dim>
					<dim>64</dim>
				</port>
			</input>
			<output>
				<port id="1">
					<dim>1</dim>
					<dim>256</dim>
					<dim>1</dim>
					<dim>1</dim>
				</port>
			</output>
		</layer>
		<layer id="344" name="moments_12/SquaredDifference/negate_" precision="FP32" type="Power">
			<data power="1" scale="-1" shift="0"/>
			<input>
				<port id="0">
					<dim>1</dim>
					<dim>256</dim>
					<dim>1</dim>
					<dim>1</dim>
				</port>
			</input>
			<output>
				<port id="1">
					<dim>1</dim>
					<dim>256</dim>
					<dim>1</dim>
					<dim>1</dim>
				</port>
			</output>
		</layer>
		<layer id="345" name="moments_12/SquaredDifference/add_/Broadcast/" precision="FP32" type="Tile">
			<data axis="2" tiles="64"/>
			<input>
				<port id="0">
					<dim>1</dim>
					<dim>256</dim>
					<dim>1</dim>
					<dim>1</dim>
				</port>
			</input>
			<output>
				<port id="1">
					<dim>1</dim>
					<dim>256</dim>
					<dim>64</dim>
					<dim>1</dim>
				</port>
			</output>
		</layer>
		<layer id="346" name="moments_12/SquaredDifference/add_/Broadcast/2445" precision="FP32" type="Tile">
			<data axis="3" tiles="64"/>
			<input>
				<port id="0">
					<dim>1</dim>
					<dim>256</dim>
					<dim>64</dim>
					<dim>1</dim>
				</port>
			</input>
			<output>
				<port id="1">
					<dim>1</dim>
					<dim>256</dim>
					<dim>64</dim>
					<dim>64</dim>
				</port>
			</output>
		</layer>
		<layer id="347" name="moments_12/SquaredDifference/add_" precision="FP32" type="Eltwise">
			<data operation="sum"/>
			<input>
				<port id="0">
					<dim>1</dim>
					<dim>256</dim>
					<dim>64</dim>
					<dim>64</dim>
				</port>
				<port id="1">
					<dim>1</dim>
					<dim>256</dim>
					<dim>64</dim>
					<dim>64</dim>
				</port>
			</input>
			<output>
				<port id="2">
					<dim>1</dim>
					<dim>256</dim>
					<dim>64</dim>
					<dim>64</dim>
				</port>
			</output>
		</layer>
		<layer id="348" name="moments_12/SquaredDifference/squared_" precision="FP32" type="Power">
			<data power="2" scale="1" shift="0"/>
			<input>
				<port id="0">
					<dim>1</dim>
					<dim>256</dim>
					<dim>64</dim>
					<dim>64</dim>
				</port>
			</input>
			<output>
				<port id="1">
					<dim>1</dim>
					<dim>256</dim>
					<dim>64</dim>
					<dim>64</dim>
				</port>
			</output>
		</layer>
		<layer id="349" name="moments_12/variance" precision="FP32" type="Pooling">
			<data exclude-pad="true" kernel="64,64" pads_begin="0,0" pads_end="0,0" pool-method="avg" rounding-type="ceil" strides="1,1"/>
			<input>
				<port id="0">
					<dim>1</dim>
					<dim>256</dim>
					<dim>64</dim>
					<dim>64</dim>
				</port>
			</input>
			<output>
				<port id="1">
					<dim>1</dim>
					<dim>256</dim>
					<dim>1</dim>
					<dim>1</dim>
				</port>
			</output>
		</layer>
		<layer id="350" name="instancenorm_12/add" precision="FP32" type="Power">
			<data power="1" scale="1" shift="9.999999747378752e-06"/>
			<input>
				<port id="0">
					<dim>1</dim>
					<dim>256</dim>
					<dim>1</dim>
					<dim>1</dim>
				</port>
			</input>
			<output>
				<port id="1">
					<dim>1</dim>
					<dim>256</dim>
					<dim>1</dim>
					<dim>1</dim>
				</port>
			</output>
		</layer>
		<layer id="351" name="instancenorm_12/Rsqrt" precision="FP32" type="Power">
			<data power="-0.5" scale="1" shift="0"/>
			<input>
				<port id="0">
					<dim>1</dim>
					<dim>256</dim>
					<dim>1</dim>
					<dim>1</dim>
				</port>
			</input>
			<output>
				<port id="1">
					<dim>1</dim>
					<dim>256</dim>
					<dim>1</dim>
					<dim>1</dim>
				</port>
			</output>
		</layer>
		<layer id="352" name="instancenorm_12/mul" precision="FP32" type="ScaleShift">
			<input>
				<port id="0">
					<dim>1</dim>
					<dim>256</dim>
					<dim>1</dim>
					<dim>1</dim>
				</port>
			</input>
			<output>
				<port id="3">
					<dim>1</dim>
					<dim>256</dim>
					<dim>1</dim>
					<dim>1</dim>
				</port>
			</output>
			<blobs>
				<weights offset="1515520" size="1024"/>
				<biases offset="1516544" size="1024"/>
			</blobs>
		</layer>
		<layer id="353" name="instancenorm_12/mul_1/Broadcast/" precision="FP32" type="Tile">
			<data axis="2" tiles="64"/>
			<input>
				<port id="0">
					<dim>1</dim>
					<dim>256</dim>
					<dim>1</dim>
					<dim>1</dim>
				</port>
			</input>
			<output>
				<port id="1">
					<dim>1</dim>
					<dim>256</dim>
					<dim>64</dim>
					<dim>1</dim>
				</port>
			</output>
		</layer>
		<layer id="354" name="instancenorm_12/mul_1/Broadcast/2541" precision="FP32" type="Tile">
			<data axis="3" tiles="64"/>
			<input>
				<port id="0">
					<dim>1</dim>
					<dim>256</dim>
					<dim>64</dim>
					<dim>1</dim>
				</port>
			</input>
			<output>
				<port id="1">
					<dim>1</dim>
					<dim>256</dim>
					<dim>64</dim>
					<dim>64</dim>
				</port>
			</output>
		</layer>
		<layer id="355" name="instancenorm_12/mul_1" precision="FP32" type="Eltwise">
			<data operation="mul"/>
			<input>
				<port id="0">
					<dim>1</dim>
					<dim>256</dim>
					<dim>64</dim>
					<dim>64</dim>
				</port>
				<port id="1">
					<dim>1</dim>
					<dim>256</dim>
					<dim>64</dim>
					<dim>64</dim>
				</port>
			</input>
			<output>
				<port id="2">
					<dim>1</dim>
					<dim>256</dim>
					<dim>64</dim>
					<dim>64</dim>
				</port>
			</output>
		</layer>
		<layer id="356" name="instancenorm_12/mul_2" precision="FP32" type="Eltwise">
			<data operation="mul"/>
			<input>
				<port id="0">
					<dim>1</dim>
					<dim>256</dim>
					<dim>1</dim>
					<dim>1</dim>
				</port>
				<port id="1">
					<dim>1</dim>
					<dim>256</dim>
					<dim>1</dim>
					<dim>1</dim>
				</port>
			</input>
			<output>
				<port id="2">
					<dim>1</dim>
					<dim>256</dim>
					<dim>1</dim>
					<dim>1</dim>
				</port>
			</output>
		</layer>
		<layer id="357" name="instancenorm_12/sub/negate_" precision="FP32" type="Power">
			<data power="1" scale="-1" shift="0"/>
			<input>
				<port id="0">
					<dim>1</dim>
					<dim>256</dim>
…
		<edge from-layer="37" from-port="1" to-layer="38" to-port="0"/>
		<edge from-layer="38" from-port="1" to-layer="39" to-port="0"/>
		<edge from-layer="35" from-port="1" to-layer="40" to-port="0"/>
		<edge from-layer="39" from-port="1" to-layer="40" to-port="1"/>
		<edge from-layer="40" from-port="2" to-layer="41" to-port="0"/>
		<edge from-layer="41" from-port="1" to-layer="42" to-port="0"/>
		<edge from-layer="42" from-port="1" to-layer="43" to-port="0"/>
		<edge from-layer="43" from-port="1" to-layer="44" to-port="0"/>
		<edge from-layer="44" from-port="1" to-layer="45" to-port="0"/>
		<edge from-layer="45" from-port="3" to-layer="46" to-port="0"/>
		<edge from-layer="46" from-port="1" to-layer="47" to-port="0"/>
		<edge from-layer="35" from-port="1" to-layer="48" to-port="0"/>
		<edge from-layer="47" from-port="1" to-layer="48" to-port="1"/>
		<edge from-layer="36" from-port="1" to-layer="49" to-port="0"/>
		<edge from-layer="45" from-port="3" to-layer="49" to-port="1"/>
		<edge from-layer="49" from-port="2" to-layer="50" to-port="0"/>
		<edge from-layer="50" from-port="1" to-layer="51" to-port="0"/>
		<edge from-layer="51" from-port="3" to-layer="52" to-port="0"/>
		<edge from-layer="52" from-port="1" to-layer="53" to-port="0"/>
		<edge from-layer="48" from-port="2" to-layer="54" to-port="0"/>
		<edge from-layer="53" from-port="1" to-layer="54" to-port="1"/>
		<edge from-layer="54" from-port="2" to-layer="55" to-port="0"/>
		<edge from-layer="55" from-port="1" to-layer="56" to-port="0"/>
		<edge from-layer="56" from-port="2" to-layer="57" to-port="0"/>
		<edge from-layer="58" from-port="1" to-layer="59" to-port="0"/>
		<edge from-layer="59" from-port="1" to-layer="60" to-port="0"/>
		<edge from-layer="57" from-port="1" to-layer="61" to-port="0"/>
		<edge from-layer="60" from-port="1" to-layer="61" to-port="1"/>
		<edge from-layer="61" from-port="2" to-layer="62" to-port="0"/>
		<edge from-layer="62" from-port="1" to-layer="63" to-port="0"/>
		<edge from-layer="63" from-port="1" to-layer="64" to-port="0"/>
		<edge from-layer="64" from-port="1" to-layer="65" to-port="0"/>
		<edge from-layer="65" from-port="1" to-layer="66" to-port="0"/>
		<edge from-layer="62" from-port="1" to-layer="67" to-port="0"/>
		<edge from-layer="66" from-port="1" to-layer="67" to-port="1"/>
		<edge from-layer="67" from-port="2" to-layer="68" to-port="0"/>
		<edge from-layer="68" from-port="1" to-layer="69" to-port="0"/>
		<edge from-layer="69" from-port="1" to-layer="70" to-port="0"/>
		<edge from-layer="70" from-port="1" to-layer="71" to-port="0"/>
		<edge from-layer="71" from-port="1" to-layer="72" to-port="0"/>
		<edge from-layer="72" from-port="3" to-layer="73" to-port="0"/>
		<edge from-layer="73" from-port="1" to-layer="74" to-port="0"/>
		<edge from-layer="62" from-port="1" to-layer="75" to-port="0"/>
		<edge from-layer="74" from-port="1" to-layer="75" to-port="1"/>
		<edge from-layer="63" from-port="1" to-layer="76" to-port="0"/>
		<edge from-layer="72" from-port="3" to-layer="76" to-port="1"/>
		<edge from-layer="76" from-port="2" to-layer="77" to-port="0"/>
		<edge from-layer="77" from-port="1" to-layer="78" to-port="0"/>
		<edge from-layer="78" from-port="3" to-layer="79" to-port="0"/>
		<edge from-layer="79" from-port="1" to-layer="80" to-port="0"/>
		<edge from-layer="75" from-port="2" to-layer="81" to-port="0"/>
		<edge from-layer="80" from-port="1" to-layer="81" to-port="1"/>
		<edge from-layer="81" from-port="2" to-layer="82" to-port="0"/>
		<edge from-layer="82" from-port="1" to-layer="83" to-port="0"/>
		<edge from-layer="83" from-port="1" to-layer="84" to-port="0"/>
		<edge from-layer="84" from-port="2" to-layer="85" to-port="0"/>
		<edge from-layer="86" from-port="1" to-layer="87" to-port="0"/>
		<edge from-layer="87" from-port="1" to-layer="88" to-port="0"/>
		<edge from-layer="85" from-port="1" to-layer="89" to-port="0"/>
		<edge from-layer="88" from-port="1" to-layer="89" to-port="1"/>
		<edge from-layer="89" from-port="2" to-layer="90" to-port="0"/>
		<edge from-layer="90" from-port="1" to-layer="91" to-port="0"/>
		<edge from-layer="91" from-port="1" to-layer="92" to-port="0"/>
		<edge from-layer="92" from-port="1" to-layer="93" to-port="0"/>
		<edge from-layer="93" from-port="1" to-layer="94" to-port="0"/>
		<edge from-layer="90" from-port="1" to-layer="95" to-port="0"/>
		<edge from-layer="94" from-port="1" to-layer="95" to-port="1"/>
		<edge from-layer="95" from-port="2" to-layer="96" to-port="0"/>
		<edge from-layer="96" from-port="1" to-layer="97" to-port="0"/>
		<edge from-layer="97" from-port="1" to-layer="98" to-port="0"/>
		<edge from-layer="98" from-port="1" to-layer="99" to-port="0"/>
		<edge from-layer="99" from-port="1" to-layer="100" to-port="0"/>
		<edge from-layer="100" from-port="3" to-layer="101" to-port="0"/>
		<edge from-layer="101" from-port="1" to-layer="102" to-port="0"/>
		<edge from-layer="90" from-port="1" to-layer="103" to-port="0"/>
		<edge from-layer="102" from-port="1" to-layer="103" to-port="1"/>
		<edge from-layer="91" from-port="1" to-layer="104" to-port="0"/>
		<edge from-layer="100" from-port="3" to-layer="104" to-port="1"/>
		<edge from-layer="104" from-port="2" to-layer="105" to-port="0"/>
		<edge from-layer="105" from-port="1" to-layer="106" to-port="0"/>
		<edge from-layer="106" from-port="3" to-layer="107" to-port="0"/>
		<edge from-layer="107" from-port="1" to-layer="108" to-port="0"/>
		<edge from-layer="103" from-port="2" to-layer="109" to-port="0"/>
		<edge from-layer="108" from-port="1" to-layer="109" to-port="1"/>
		<edge from-layer="109" from-port="2" to-layer="110" to-port="0"/>
		<edge from-layer="110" from-port="1" to-layer="111" to-port="0"/>
		<edge from-layer="111" from-port="1" to-layer="112" to-port="0"/>
		<edge from-layer="112" from-port="2" to-layer="113" to-port="0"/>
		<edge from-layer="114" from-port="1" to-layer="115" to-port="0"/>
		<edge from-layer="115" from-port="1" to-layer="116" to-port="0"/>
		<edge from-layer="113" from-port="1" to-layer="117" to-port="0"/>
		<edge from-layer="116" from-port="1" to-layer="117" to-port="1"/>
		<edge from-layer="117" from-port="2" to-layer="118" to-port="0"/>
		<edge from-layer="118" from-port="1" to-layer="119" to-port="0"/>
		<edge from-layer="119" from-port="1" to-layer="120" to-port="0"/>
		<edge from-layer="120" from-port="1" to-layer="121" to-port="0"/>
		<edge from-layer="121" from-port="1" to-layer="122" to-port="0"/>
		<edge from-layer="118" from-port="1" to-layer="123" to-port="0"/>
		<edge from-layer="122" from-port="1" to-layer="123" to-port="1"/>
		<edge from-layer="123" from-port="2" to-layer="124" to-port="0"/>
		<edge from-layer="124" from-port="1" to-layer="125" to-port="0"/>
		<edge from-layer="125" from-port="1" to-layer="126" to-port="0"/>
		<edge from-layer="126" from-port="1" to-layer="127" to-port="0"/>
		<edge from-layer="127" from-port="1" to-layer="128" to-port="0"/>
		<edge from-layer="128" from-port="3" to-layer="129" to-port="0"/>
		<edge from-layer="129" from-port="1" to-layer="130" to-port="0"/>
		<edge from-layer="118" from-port="1" to-layer="131" to-port="0"/>
		<edge from-layer="130" from-port="1" to-layer="131" to-port="1"/>
		<edge from-layer="119" from-port="1" to-layer="132" to-port="0"/>
		<edge from-layer="128" from-port="3" to-layer="132" to-port="1"/>
		<edge from-layer="132" from-port="2" to-layer="133" to-port="0"/>
		<edge from-layer="133" from-port="1" to-layer="134" to-port="0"/>
		<edge from-layer="134" from-port="3" to-layer="135" to-port="0"/>
		<edge from-layer="135" from-port="1" to-layer="136" to-port="0"/>
		<edge from-layer="131" from-port="2" to-layer="137" to-port="0"/>
		<edge from-layer="136" from-port="1" to-layer="137" to-port="1"/>
		<edge from-layer="82" from-port="1" to-layer="138" to-port="0"/>
		<edge from-layer="137" from-port="2" to-layer="138" to-port="1"/>
		<edge from-layer="138" from-port="2" to-layer="139" to-port="0"/>
		<edge from-layer="139" from-port="1" to-layer="140" to-port="0"/>
		<edge from-layer="140" from-port="2" to-layer="141" to-port="0"/>
		<edge from-layer="142" from-port="1" to-layer="143" to-port="0"/>
		<edge from-layer="143" from-port="1" to-layer="144" to-port="0"/>
		<edge from-layer="141" from-port="1" to-layer="145" to-port="0"/>
		<edge from-layer="144" from-port="1" to-layer="145" to-port="1"/>
		<edge from-layer="145" from-port="2" to-layer="146" to-port="0"/>
		<edge from-layer="146" from-port="1" to-layer="147" to-port="0"/>
		<edge from-layer="147" from-port="1" to-layer="148" to-port="0"/>
		<edge from-layer="148" from-port="1" to-layer="149" to-port="0"/>
		<edge from-layer="149" from-port="1" to-layer="150" to-port="0"/>
		<edge from-layer="146" from-port="1" to-layer="151" to-port="0"/>
		<edge from-layer="150" from-port="1" to-layer="151" to-port="1"/>
		<edge from-layer="151" from-port="2" to-layer="152" to-port="0"/>
		<edge from-layer="152" from-port="1" to-layer="153" to-port="0"/>
		<edge from-layer="153" from-port="1" to-layer="154" to-port="0"/>
		<edge from-layer="154" from-port="1" to-layer="155" to-port="0"/>
		<edge from-layer="155" from-port="1" to-layer="156" to-port="0"/>
		<edge from-layer="156" from-port="3" to-layer="157" to-port="0"/>
		<edge from-layer="157" from-port="1" to-layer="158" to-port="0"/>
		<edge from-layer="146" from-port="1" to-layer="159" to-port="0"/>
		<edge from-layer="158" from-port="1" to-layer="159" to-port="1"/>
		<edge from-layer="147" from-port="1" to-layer="160" to-port="0"/>
		<edge from-layer="156" from-port="3" to-layer="160" to-port="1"/>
		<edge from-layer="160" from-port="2" to-layer="161" to-port="0"/>
		<edge from-layer="161" from-port="1" to-layer="162" to-port="0"/>
		<edge from-layer="162" from-port="3" to-layer="163" to-port="0"/>
		<edge from-layer="163" from-port="1" to-layer="164" to-port="0"/>
		<edge from-layer="159" from-port="2" to-layer="165" to-port="0"/>
		<edge from-layer="164" from-port="1" to-layer="165" to-port="1"/>
		<edge from-layer="165" from-port="2" to-layer="166" to-port="0"/>
		<edge from-layer="166" from-port="1" to-layer="167" to-port="0"/>
		<edge from-layer="167" from-port="1" to-layer="168" to-port="0"/>
		<edge from-layer="168" from-port="2" to-layer="169" to-port="0"/>
		<edge from-layer="170" from-port="1" to-layer="171" to-port="0"/>
		<edge from-layer="171" from-port="1" to-layer="172" to-port="0"/>
		<edge from-layer="169" from-port="1" to-layer="173" to-port="0"/>
		<edge from-layer="172" from-port="1" to-layer="173" to-port="1"/>
		<edge from-layer="173" from-port="2" to-layer="174" to-port="0"/>
		<edge from-layer="174" from-port="1" to-layer="175" to-port="0"/>
		<edge from-layer="175" from-port="1" to-layer="176" to-port="0"/>
		<edge from-layer="176" from-port="1" to-layer="177" to-port="0"/>
		<edge from-layer="177" from-port="1" to-layer="178" to-port="0"/>
		<edge from-layer="174" from-port="1" to-layer="179" to-port="0"/>
		<edge from-layer="178" from-port="1" to-layer="179" to-port="1"/>
		<edge from-layer="179" from-port="2" to-layer="180" to-port="0"/>
		<edge from-layer="180" from-port="1" to-layer="181" to-port="0"/>
		<edge from-layer="181" from-port="1" to-layer="182" to-port="0"/>
		<edge from-layer="182" from-port="1" to-layer="183" to-port="0"/>
		<edge from-layer="183" from-port="1" to-layer="184" to-port="0"/>
		<edge from-layer="184" from-port="3" to-layer="185" to-port="0"/>
		<edge from-layer="185" from-port="1" to-layer="186" to-port="0"/>
		<edge from-layer="174" from-port="1" to-layer="187" to-port="0"/>
		<edge from-layer="186" from-port="1" to-layer="187" to-port="1"/>
		<edge from-layer="175" from-port="1" to-layer="188" to-port="0"/>
		<edge from-layer="184" from-port="3" to-layer="188" to-port="1"/>
		<edge from-layer="188" from-port="2" to-layer="189" to-port="0"/>
		<edge from-layer="189" from-port="1" to-layer="190" to-port="0"/>
		<edge from-layer="190" from-port="3" to-layer="191" to-port="0"/>
		<edge from-layer="191" from-port="1" to-layer="192" to-port="0"/>
		<edge from-layer="187" from-port="2" to-layer="193" to-port="0"/>
		<edge from-layer="192" from-port="1" to-layer="193" to-port="1"/>
		<edge from-layer="138" from-port="2" to-layer="194" to-port="0"/>
		<edge from-layer="193" from-port="2" to-layer="194" to-port="1"/>
		<edge from-layer="194" from-port="2" to-layer="195" to-port="0"/>
		<edge from-layer="195" from-port="1" to-layer="196" to-port="0"/>
		<edge from-layer="196" from-port="2" to-layer="197" to-port="0"/>
		<edge from-layer="198" from-port="1" to-layer="199" to-port="0"/>
		<edge from-layer="199" from-port="1" to-layer="200" to-port="0"/>
		<edge from-layer="197" from-port="1" to-layer="201" to-port="0"/>
		<edge from-layer="200" from-port="1" to-layer="201" to-port="1"/>
		<edge from-layer="201" from-port="2" to-layer="202" to-port="0"/>
		<edge from-layer="202" from-port="1" to-layer="203" to-port="0"/>
		<edge from-layer="203" from-port="1" to-layer="204" to-port="0"/>
		<edge from-layer="204" from-port="1" to-layer="205" to-port="0"/>
		<edge from-layer="205" from-port="1" to-layer="206" to-port="0"/>
		<edge from-layer="202" from-port="1" to-layer="207" to-port="0"/>
		<edge from-layer="206" from-port="1" to-layer="207" to-port="1"/>
		<edge from-layer="207" from-port="2" to-layer="208" to-port="0"/>
		<edge from-layer="208" from-port="1" to-layer="209" to-port="0"/>
		<edge from-layer="209" from-port="1" to-layer="210" to-port="0"/>
		<edge from-layer="210" from-port="1" to-layer="211" to-port="0"/>
		<edge from-layer="211" from-port="1" to-layer="212" to-port="0"/>
		<edge from-layer="212" from-port="3" to-layer="213" to-port="0"/>
		<edge from-layer="213" from-port="1" to-layer="214" to-port="0"/>
		<edge from-layer="202" from-port="1" to-layer="215" to-port="0"/>
		<edge from-layer="214" from-port="1" to-layer="215" to-port="1"/>
		<edge from-layer="203" from-port="1" to-layer="216" to-port="0"/>
		<edge from-layer="212" from-port="3" to-layer="216" to-port="1"/>
		<edge from-layer="216" from-port="2" to-layer="217" to-port="0"/>
		<edge from-layer="217" from-port="1" to-layer="218" to-port="0"/>
		<edge from-layer="218" from-port="3" to-layer="219" to-port="0"/>
		<edge from-layer="219" from-port="1" to-layer="220" to-port="0"/>
		<edge from-layer="215" from-port="2" to-layer="221" to-port="0"/>
		<edge from-layer="220" from-port="1" to-layer="221" to-port="1"/>
		<edge from-layer="221" from-port="2" to-layer="222" to-port="0"/>
		<edge from-layer="222" from-port="1" to-layer="223" to-port="0"/>
		<edge from-layer="223" from-port="1" to-layer="224" to-port="0"/>
		<edge from-layer="224" from-port="2" to-layer="225" to-port="0"/>
		<edge from-layer="226" from-port="1" to-layer="227" to-port="0"/>
		<edge from-layer="227" from-port="1" to-layer="228" to-port="0"/>
		<edge from-layer="225" from-port="1" to-layer="229" to-port="0"/>
		<edge from-layer="228" from-port="1" to-layer="229" to-port="1"/>
		<edge from-layer="229" from-port="2" to-layer="230" to-port="0"/>
		<edge from-layer="230" from-port="1" to-layer="231" to-port="0"/>
		<edge from-layer="231" from-port="1" to-layer="232" to-port="0"/>
		<edge from-layer="232" from-port="1" to-layer="233" to-port="0"/>
		<edge from-layer="233" from-port="1" to-layer="234" to-port="0"/>
		<edge from-layer="230" from-port="1" to-layer="235" to-port="0"/>
		<edge from-layer="234" from-port="1" to-layer="235" to-port="1"/>
		<edge from-layer="235" from-port="2" to-layer="236" to-port="0"/>
		<edge from-layer="236" from-port="1" to-layer="237" to-port="0"/>
		<edge from-layer="237" from-port="1" to-layer="238" to-port="0"/>
		<edge from-layer="238" from-port="1" to-layer="239" to-port="0"/>
		<edge from-layer="239" from-port="1" to-layer="240" to-port="0"/>
		<edge from-layer="240" from-port="3" to-layer="241" to-port="0"/>
		<edge from-layer="241" from-port="1" to-layer="242" to-port="0"/>
		<edge from-layer="230" from-port="1" to-layer="243" to-port="0"/>
		<edge from-layer="242" from-port="1" to-layer="243" to-port="1"/>
		<edge from-layer="231" from-port="1" to-layer="244" to-port="0"/>
		<edge from-layer="240" from-port="3" to-layer="244" to-port="1"/>
		<edge from-layer="244" from-port="2" to-layer="245" to-port="0"/>
		<edge from-layer="245" from-port="1" to-layer="246" to-port="0"/>
		<edge from-layer="246" from-port="3" to-layer="247" to-port="0"/>
		<edge from-layer="247" from-port="1" to-layer="248" to-port="0"/>
		<edge from-layer="243" from-port="2" to-layer="249" to-port="0"/>
		<edge from-layer="248" from-port="1" to-layer="249" to-port="1"/>
		<edge from-layer="194" from-port="2" to-layer="250" to-port="0"/>
		<edge from-layer="249" from-port="2" to-layer="250" to-port="1"/>
		<edge from-layer="250" from-port="2" to-layer="251" to-port="0"/>
		<edge from-layer="251" from-port="1" to-layer="252" to-port="0"/>
		<edge from-layer="252" from-port="2" to-layer="253" to-port="0"/>
		<edge from-layer="254" from-port="1" to-layer="255" to-port="0"/>
		<edge from-layer="255" from-port="1" to-layer="256" to-port="0"/>
		<edge from-layer="253" from-port="1" to-layer="257" to-port="0"/>
		<edge from-layer="256" from-port="1" to-layer="257" to-port="1"/>
		<edge from-layer="257" from-port="2" to-layer="258" to-port="0"/>
		<edge from-layer="258" from-port="1" to-layer="259" to-port="0"/>
		<edge from-layer="259" from-port="1" to-layer="260" to-port="0"/>
		<edge from-layer="260" from-port="1" to-layer="261" to-port="0"/>
		<edge from-layer="261" from-port="1" to-layer="262" to-port="0"/>
		<edge from-layer="258" from-port="1" to-layer="263" to-port="0"/>
		<edge from-layer="262" from-port="1" to-layer="263" to-port="1"/>
		<edge from-layer="263" from-port="2" to-layer="264" to-port="0"/>
		<edge from-layer="264" from-port="1" to-layer="265" to-port="0"/>
		<edge from-layer="265" from-port="1" to-layer="266" to-port="0"/>
		<edge from-layer="266" from-port="1" to-layer="267" to-port="0"/>
		<edge from-layer="267" from-port="1" to-layer="268" to-port="0"/>
		<edge from-layer="268" from-port="3" to-layer="269" to-port="0"/>
		<edge from-layer="269" from-port="1" to-layer="270" to-port="0"/>
		<edge from-layer="258" from-port="1" to-layer="271" to-port="0"/>
		<edge from-layer="270" from-port="1" to-layer="271" to-port="1"/>
		<edge from-layer="259" from-port="1" to-layer="272" to-port="0"/>
		<edge from-layer="268" from-port="3" to-layer="272" to-port="1"/>
		<edge from-layer="272" from-port="2" to-layer="273" to-port="0"/>
		<edge from-layer="273" from-port="1" to-layer="274" to-port="0"/>
		<edge from-layer="274" from-port="3" to-layer="275" to-port="0"/>
		<edge from-layer="275" from-port="1" to-layer="276" to-port="0"/>
		<edge from-layer="271" from-port="2" to-layer="277" to-port="0"/>
		<edge from-layer="276" from-port="1" to-layer="277" to-port="1"/>
		<edge from-layer="277" from-port="2" to-layer="278" to-port="0"/>
		<edge from-layer="278" from-port="1" to-layer="279" to-port="0"/>
		<edge from-layer="279" from-port="1" to-layer="280" to-port="0"/>
		<edge from-layer="280" from-port="2" to-layer="281" to-port="0"/>
		<edge from-layer="282" from-port="1" to-layer="283" to-port="0"/>
		<edge from-layer="283" from-port="1" to-layer="284" to-port="0"/>
		<edge from-layer="281" from-port="1" to-layer="285" to-port="0"/>
		<edge from-layer="284" from-port="1" to-layer="285" to-port="1"/>
		<edge from-layer="285" from-port="2" to-layer="286" to-port="0"/>
		<edge from-layer="286" from-port="1" to-layer="287" to-port="0"/>
		<edge from-layer="287" from-port="1" to-layer="288" to-port="0"/>
		<edge from-layer="288" from-port="1" to-layer="289" to-port="0"/>
		<edge from-layer="289" from-port="1" to-layer="290" to-port="0"/>
		<edge from-layer="286" from-port="1" to-layer="291" to-port="0"/>
		<edge from-layer="290" from-port="1" to-layer="291" to-port="1"/>
		<edge from-layer="291" from-port="2" to-layer="292" to-port="0"/>
		<edge from-layer="292" from-port="1" to-layer="293" to-port="0"/>
		<edge from-layer="293" from-port="1" to-layer="294" to-port="0"/>
		<edge from-layer="294" from-port="1" to-layer="295" to-port="0"/>
		<edge from-layer="295" from-port="1" to-layer="296" to-port="0"/>
		<edge from-layer="296" from-port="3" to-layer="297" to-port="0"/>
		<edge from-layer="297" from-port="1" to-layer="298" to-port="0"/>
		<edge from-layer="286" from-port="1" to-layer="299" to-port="0"/>
		<edge from-layer="298" from-port="1" to-layer="299" to-port="1"/>
		<edge from-layer="287" from-port="1" to-layer="300" to-port="0"/>
		<edge from-layer="296" from-port="3" to-layer="300" to-port="1"/>
		<edge from-layer="300" from-port="2" to-layer="301" to-port="0"/>
		<edge from-layer="301" from-port="1" to-layer="302" to-port="0"/>
		<edge from-layer="302" from-port="3" to-layer="303" to-port="0"/>
		<edge from-layer="303" from-port="1" to-layer="304" to-port="0"/>
		<edge from-layer="299" from-port="2" to-layer="305" to-port="0"/>
		<edge from-layer="304" from-port="1" to-layer="305" to-port="1"/>
		<edge from-layer="250" from-port="2" to-layer="306" to-port="0"/>
		<edge from-layer="305" from-port="2" to-layer="306" to-port="1"/>
		<edge from-layer="306" from-port="2" to-layer="307" to-port="0"/>
		<edge from-layer="307" from-port="1" to-layer="308" to-port="0"/>
		<edge from-layer="308" from-port="2" to-layer="309" to-port="0"/>
		<edge from-layer="310" from-port="1" to-layer="311" to-port="0"/>
		<edge from-layer="311" from-port="1" to-layer="312" to-port="0"/>
		<edge from-layer="309" from-port="1" to-layer="313" to-port="0"/>
		<edge from-layer="312" from-port="1" to-layer="313" to-port="1"/>
		<edge from-layer="313" from-port="2" to-layer="314" to-port="0"/>
		<edge from-layer="314" from-port="1" to-layer="315" to-port="0"/>
		<edge from-layer="315" from-port="1" to-layer="316" to-port="0"/>
		<edge from-layer="316" from-port="1" to-layer="317" to-port="0"/>
		<edge from-layer="317" from-port="1" to-layer="318" to-port="0"/>
		<edge from-layer="314" from-port="1" to-layer="319" to-port="0"/>
		<edge from-layer="318" from-port="1" to-layer="319" to-port="1"/>
		<edge from-layer="319" from-port="2" to-layer="320" to-port="0"/>
		<edge from-layer="320" from-port="1" to-layer="321" to-port="0"/>
		<edge from-layer="321" from-port="1" to-layer="322" to-port="0"/>
		<edge from-layer="322" from-port="1" to-layer="323" to-port="0"/>
		<edge from-layer="323" from-port="1" to-layer="324" to-port="0"/>
		<edge from-layer="324" from-port="3" to-layer="325" to-port="0"/>
		<edge from-layer="325" from-port="1" to-layer="326" to-port="0"/>
		<edge from-layer="314" from-port="1" to-layer="327" to-port="0"/>
		<edge from-layer="326" from-port="1" to-layer="327" to-port="1"/>
		<edge from-layer="315" from-port="1" to-layer="328" to-port="0"/>
		<edge from-layer="324" from-port="3" to-layer="328" to-port="1"/>
		<edge from-layer="328" from-port="2" to-layer="329" to-port="0"/>
		<edge from-layer="329" from-port="1" to-layer="330" to-port="0"/>
		<edge from-layer="330" from-port="3" to-layer="331" to-port="0"/>
		<edge from-layer="331" from-port="1" to-layer="332" to-port="0"/>
		<edge from-layer="327" from-port="2" to-layer="333" to-port="0"/>
		<edge from-layer="332" from-port="1" to-layer="333" to-port="1"/>
		<edge from-layer="333" from-port="2" to-layer="334" to-port="0"/>
		<edge from-layer="334" from-port="1" to-layer="335" to-port="0"/>
		<edge from-layer="335" from-port="1" to-layer="336" to-port="0"/>
		<edge from-layer="336" from-port="2" to-layer="337" to-port="0"/>
		<edge from-layer="338" from-port="1" to-layer="339" to-port="0"/>
		<edge from-layer="339" from-port="1" to-layer="340" to-port="0"/>
		<edge from-layer="337" from-port="1" to-layer="341" to-port="0"/>
		<edge from-layer="340" from-port="1" to-layer="341" to-port="1"/>
		<edge from-layer="341" from-port="2" to-layer="342" to-port="0"/>
		<edge from-layer="342" from-port="1" to-layer="343" to-port="0"/>
		<edge from-layer="343" from-port="1" to-layer="344" to-port="0"/>
		<edge from-layer="344" from-port="1" to-layer="345" to-port="0"/>
		<edge from-layer="345" from-port="1" to-layer="346" to-port="0"/>
		<edge from-layer="342" from-port="1" to-layer="347" to-port="0"/>
		<edge from-layer="346" from-port="1" to-layer="347" to-port="1"/>
		<edge from-layer="347" from-port="2" to-layer="348" to-port="0"/>
		<edge from-layer="348" from-port="1" to-layer="349" to-port="0"/>
		<edge from-layer="349" from-port="1" to-layer="350" to-port="0"/>
		<edge from-layer="350" from-port="1" to-layer="351" to-port="0"/>
		<edge from-layer="351" from-port="1" to-layer="352" to-port="0"/>
		<edge from-layer="352" from-port="3" to-layer="353" to-port="0"/>
		<edge from-layer="353" from-port="1" to-layer="354" to-port="0"/>
		<edge from-layer="342" from-port="1" to-layer="355" to-port="0"/>
		<edge from-layer="354" from-port="1" to-layer="355" to-port="1"/>
		<edge from-layer="343" from-port="1" to-layer="356" to-port="0"/>
		<edge from-layer="352" from-port="3" to-layer="356" to-port="1"/>
		<edge from-layer="356" from-port="2" to-layer="357" to-port="0"/>
		<edge from-layer="357" from-port="1" to-layer="358" to-port="0"/>
		<edge from-layer="358" from-port="3" to-layer="359" to-port="0"/>
		<edge from-layer="359" from-port="1" to-layer="360" to-port="0"/>
		<edge from-layer="355" from-port="2" to-layer="361" to-port="0"/>
		<edge from-layer="360" from-port="1" to-layer="361" to-port="1"/>
		<edge from-layer="306" from-port="2" to-layer="362" to-port="0"/>
		<edge from-layer="361" from-port="2" to-layer="362" to-port="1"/>
		<edge from-layer="362" from-port="2" to-layer="363" to-port="0"/>
		<edge from-layer="363" from-port="1" to-layer="364" to-port="0"/>
		<edge from-layer="364" from-port="2" to-layer="365" to-port="0"/>
		<edge from-layer="366" from-port="1" to-layer="367" to-port="0"/>
		<edge from-layer="367" from-port="1" to-layer="368" to-port="0"/>
		<edge from-layer="365" from-port="1" to-layer="369" to-port="0"/>
		<edge from-layer="368" from-port="1" to-layer="369" to-port="1"/>
		<edge from-layer="369" from-port="2" to-layer="370" to-port="0"/>
		<edge from-layer="370" from-port="1" to-layer="371" to-port="0"/>
		<edge from-layer="371" from-port="1" to-layer="372" to-port="0"/>
		<edge from-layer="372" from-port="1" to-layer="373" to-port="0"/>
		<edge from-layer="373" from-port="1" to-layer="374" to-port="0"/>
		<edge from-layer="370" from-port="1" to-layer="375" to-port="0"/>
		<edge from-layer="374" from-port="1" to-layer="375" to-port="1"/>
		<edge from-layer="375" from-port="2" to-layer="376" to-port="0"/>
		<edge from-layer="376" from-port="1" to-layer="377" to-port="0"/>
		<edge from-layer="377" from-port="1" to-layer="378" to-port="0"/>
		<edge from-layer="378" from-port="1" to-layer="379" to-port="0"/>
		<edge from-layer="379" from-port="1" to-layer="380" to-port="0"/>
		<edge from-layer="380" from-port="3" to-layer="381" to-port="0"/>
		<edge from-layer="381" from-port="1" to-layer="382" to-port="0"/>
		<edge from-layer="370" from-port="1" to-layer="383" to-port="0"/>
		<edge from-layer="382" from-port="1" to-layer="383" to-port="1"/>
		<edge from-layer="371" from-port="1" to-layer="384" to-port="0"/>
		<edge from-layer="380" from-port="3" to-layer="384" to-port="1"/>
		<edge from-layer="384" from-port="2" to-layer="385" to-port="0"/>
		<edge from-layer="385" from-port="1" to-layer="386" to-port="0"/>
		<edge from-layer="386" from-port="3" to-layer="387" to-port="0"/>
		<edge from-layer="387" from-port="1" to-layer="388" to-port="0"/>
		<edge from-layer="383" from-port="2" to-layer="389" to-port="0"/>
		<edge from-layer="388" from-port="1" to-layer="389" to-port="1"/>
		<edge from-layer="389" from-port="2" to-layer="390" to-port="0"/>
		<edge from-layer="390" from-port="1" to-layer="391" to-port="0"/>
		<edge from-layer="391" from-port="1" to-layer="392" to-port="0"/>
		<edge from-layer="392" from-port="2" to-layer="393" to-port="0"/>
		<edge from-layer="394" from-port="1" to-layer="395" to-port="0"/>
		<edge from-layer="395" from-port="1" to-layer="396" to-port="0"/>
		<edge from-layer="393" from-port="1" to-layer="397" to-port="0"/>
		<edge from-layer="396" from-port="1" to-layer="397" to-port="1"/>
		<edge from-layer="397" from-port="2" to-layer="398" to-port="0"/>
		<edge from-layer="398" from-port="1" to-layer="399" to-port="0"/>
		<edge from-layer="399" from-port="1" to-layer="400" to-port="0"/>
		<edge from-layer="400" from-port="1" to-layer="401" to-port="0"/>
		<edge from-layer="401" from-port="1" to-layer="402" to-port="0"/>
		<edge from-layer="398" from-port="1" to-layer="403" to-port="0"/>
		<edge from-layer="402" from-port="1" to-layer="403" to-port="1"/>
		<edge from-layer="403" from-port="2" to-layer="404" to-port="0"/>
		<edge from-layer="404" from-port="1" to-layer="405" to-port="0"/>
		<edge from-layer="405" from-port="1" to-layer="406" to-port="0"/>
		<edge from-layer="406" from-port="1" to-layer="407" to-port="0"/>
		<edge from-layer="407" from-port="1" to-layer="408" to-port="0"/>
		<edge from-layer="408" from-port="3" to-layer="409" to-port="0"/>
		<edge from-layer="409" from-port="1" to-layer="410" to-port="0"/>
		<edge from-layer="398" from-port="1" to-layer="411" to-port="0"/>
		<edge from-layer="410" from-port="1" to-layer="411" to-port="1"/>
		<edge from-layer="399" from-port="1" to-layer="412" to-port="0"/>
		<edge from-layer="408" from-port="3" to-layer="412" to-port="1"/>
		<edge from-layer="412" from-port="2" to-layer="413" to-port="0"/>
		<edge from-layer="413" from-port="1" to-layer="414" to-port="0"/>
		<edge from-layer="414" from-port="3" to-layer="415" to-port="0"/>
		<edge from-layer="415" from-port="1" to-layer="416" to-port="0"/>
		<edge from-layer="411" from-port="2" to-layer="417" to-port="0"/>
		<edge from-layer="416" from-port="1" to-layer="417" to-port="1"/>
		<edge from-layer="362" from-port="2" to-layer="418" to-port="0"/>
		<edge from-layer="417" from-port="2" to-layer="418" to-port="1"/>
		<edge from-layer="418" from-port="2" to-layer="419" to-port="0"/>
		<edge from-layer="419" from-port="1" to-layer="420" to-port="0"/>
		<edge from-layer="420" from-port="2" to-layer="421" to-port="0"/>
		<edge from-layer="422" from-port="1" to-layer="423" to-port="0"/>
		<edge from-layer="423" from-port="1" to-layer="424" to-port="0"/>
		<edge from-layer="421" from-port="1" to-layer="425" to-port="0"/>
		<edge from-layer="424" from-port="1" to-layer="425" to-port="1"/>
		<edge from-layer="425" from-port="2" to-layer="426" to-port="0"/>
		<edge from-layer="426" from-port="1" to-layer="427" to-port="0"/>
		<edge from-layer="427" from-port="1" to-layer="428" to-port="0"/>
		<edge from-layer="428" from-port="1" to-layer="429" to-port="0"/>
		<edge from-layer="429" from-port="1" to-layer="430" to-port="0"/>
		<edge from-layer="426" from-port="1" to-layer="431" to-port="0"/>
		<edge from-layer="430" from-port="1" to-layer="431" to-port="1"/>
		<edge from-layer="431" from-port="2" to-layer="432" to-port="0"/>
		<edge from-layer="432" from-port="1" to-layer="433" to-port="0"/>
		<edge from-layer="433" from-port="1" to-layer="434" to-port="0"/>
		<edge from-layer="434" from-port="1" to-layer="435" to-port="0"/>
		<edge from-layer="435" from-port="1" to-layer="436" to-port="0"/>
		<edge from-layer="436" from-port="3" to-layer="437" to-port="0"/>
		<edge from-layer="437" from-port="1" to-layer="438" to-port="0"/>
		<edge from-layer="426" from-port="1" to-layer="439" to-port="0"/>
		<edge from-layer="438" from-port="1" to-layer="439" to-port="1"/>
		<edge from-layer="427" from-port="1" to-layer="440" to-port="0"/>
		<edge from-layer="436" from-port="3" to-layer="440" to-port="1"/>
		<edge from-layer="440" from-port="2" to-layer="441" to-port="0"/>
		<edge from-layer="441" from-port="1" to-layer="442" to-port="0"/>
		<edge from-layer="442" from-port="3" to-layer="443" to-port="0"/>
		<edge from-layer="443" from-port="1" to-layer="444" to-port="0"/>
		<edge from-layer="439" from-port="2" to-layer="445" to-port="0"/>
		<edge from-layer="444" from-port="1" to-layer="445" to-port="1"/>
		<edge from-layer="445" from-port="2" to-layer="446" to-port="0"/>
		<edge from-layer="446" from-port="1" to-layer="447" to-port="0"/>
		<edge from-layer="447" from-port="1" to-layer="448" to-port="0"/>
		<edge from-layer="448" from-port="2" to-layer="449" to-port="0"/>
		<edge from-layer="450" from-port="1" to-layer="451" to-port="0"/>
		<edge from-layer="451" from-port="1" to-layer="452" to-port="0"/>
		<edge from-layer="449" from-port="1" to-layer="453" to-port="0"/>
		<edge from-layer="452" from-port="1" to-layer="453" to-port="1"/>
		<edge from-layer="453" from-port="2" to-layer="454" to-port="0"/>
		<edge from-layer="454" from-port="1" to-layer="455" to-port="0"/>
		<edge from-layer="455" from-port="1" to-layer="456" to-port="0"/>
		<edge from-layer="456" from-port="1" to-layer="457" to-port="0"/>
		<edge from-layer="457" from-port="1" to-layer="458" to-port="0"/>
		<edge from-layer="454" from-port="1" to-layer="459" to-port="0"/>
		<edge from-layer="458" from-port="1" to-layer="459" to-port="1"/>
		<edge from-layer="459" from-port="2" to-layer="460" to-port="0"/>
		<edge from-layer="460" from-port="1" to-layer="461" to-port="0"/>
		<edge from-layer="461" from-port="1" to-layer="462" to-port="0"/>
		<edge from-layer="462" from-port="1" to-layer="463" to-port="0"/>
		<edge from-layer="463" from-port="1" to-layer="464" to-port="0"/>
		<edge from-layer="464" from-port="3" to-layer="465" to-port="0"/>
		<edge from-layer="465" from-port="1" to-layer="466" to-port="0"/>
		<edge from-layer="454" from-port="1" to-layer="467" to-port="0"/>
		<edge from-layer="466" from-port="1" to-layer="467" to-port="1"/>
		<edge from-layer="455" from-port="1" to-layer="468" to-port="0"/>
		<edge from-layer="464" from-port="3" to-layer="468" to-port="1"/>
		<edge from-layer="468" from-port="2" to-layer="469" to-port="0"/>
		<edge from-layer="469" from-port="1" to-layer="470" to-port="0"/>
		<edge from-layer="470" from-port="3" to-layer="471" to-port="0"/>
		<edge from-layer="471" from-port="1" to-layer="472" to-port="0"/>
		<edge from-layer="467" from-port="2" to-layer="473" to-port="0"/>
		<edge from-layer="472" from-port="1" to-layer="473" to-port="1"/>
		<edge from-layer="418" from-port="2" to-layer="474" to-port="0"/>
		<edge from-layer="473" from-port="2" to-layer="474" to-port="1"/>
		<edge from-layer="474" from-port="2" to-layer="475" to-port="0"/>
		<edge from-layer="475" from-port="1" to-layer="476" to-port="0"/>
		<edge from-layer="476" from-port="2" to-layer="477" to-port="0"/>
		<edge from-layer="478" from-port="1" to-layer="479" to-port="0"/>
		<edge from-layer="479" from-port="1" to-layer="480" to-port="0"/>
		<edge from-layer="477" from-port="1" to-layer="481" to-port="0"/>
		<edge from-layer="480" from-port="1" to-layer="481" to-port="1"/>
		<edge from-layer="481" from-port="2" to-layer="482" to-port="0"/>
		<edge from-layer="482" from-port="1" to-layer="483" to-port="0"/>
		<edge from-layer="483" from-port="1" to-layer="484" to-port="0"/>
		<edge from-layer="484" from-port="1" to-layer="485" to-port="0"/>
		<edge from-layer="485" from-port="1" to-layer="486" to-port="0"/>
		<edge from-layer="482" from-port="1" to-layer="487" to-port="0"/>
		<edge from-layer="486" from-port="1" to-layer="487" to-port="1"/>
		<edge from-layer="487" from-port="2" to-layer="488" to-port="0"/>
		<edge from-layer="488" from-port="1" to-layer="489" to-port="0"/>
		<edge from-layer="489" from-port="1" to-layer="490" to-port="0"/>
		<edge from-layer="490" from-port="1" to-layer="491" to-port="0"/>
		<edge from-layer="491" from-port="1" to-layer="492" to-port="0"/>
		<edge from-layer="492" from-port="3" to-layer="493" to-port="0"/>
		<edge from-layer="493" from-port="1" to-layer="494" to-port="0"/>
		<edge from-layer="482" from-port="1" to-layer="495" to-port="0"/>
		<edge from-layer="494" from-port="1" to-layer="495" to-port="1"/>
		<edge from-layer="483" from-port="1" to-layer="496" to-port="0"/>
		<edge from-layer="492" from-port="3" to-layer="496" to-port="1"/>
		<edge from-layer="496" from-port="2" to-layer="497" to-port="0"/>
		<edge from-layer="497" from-port="1" to-layer="498" to-port="0"/>
		<edge from-layer="498" from-port="3" to-layer="499" to-port="0"/>
		<edge from-layer="499" from-port="1" to-layer="500" to-port="0"/>
		<edge from-layer="495" from-port="2" to-layer="501" to-port="0"/>
		<edge from-layer="500" from-port="1" to-layer="501" to-port="1"/>
		<edge from-layer="501" from-port="2" to-layer="502" to-port="0"/>
		<edge from-layer="502" from-port="1" to-layer="503" to-port="0"/>
		<edge from-layer="503" from-port="1" to-layer="504" to-port="0"/>
		<edge from-layer="504" from-port="2" to-layer="505" to-port="0"/>
		<edge from-layer="506" from-port="1" to-layer="507" to-port="0"/>
		<edge from-layer="507" from-port="1" to-layer="508" to-port="0"/>
		<edge from-layer="505" from-port="1" to-layer="509" to-port="0"/>
		<edge from-layer="508" from-port="1" to-layer="509" to-port="1"/>
		<edge from-layer="509" from-port="2" to-layer="510" to-port="0"/>
		<edge from-layer="510" from-port="1" to-layer="511" to-port="0"/>
		<edge from-layer="511" from-port="1" to-layer="512" to-port="0"/>
		<edge from-layer="512" from-port="1" to-layer="513" to-port="0"/>
		<edge from-layer="513" from-port="1" to-layer="514" to-port="0"/>
		<edge from-layer="510" from-port="1" to-layer="515" to-port="0"/>
		<edge from-layer="514" from-port="1" to-layer="515" to-port="1"/>
		<edge from-layer="515" from-port="2" to-layer="516" to-port="0"/>
		<edge from-layer="516" from-port="1" to-layer="517" to-port="0"/>
		<edge from-layer="517" from-port="1" to-layer="518" to-port="0"/>
		<edge from-layer="518" from-port="1" to-layer="519" to-port="0"/>
		<edge from-layer="519" from-port="1" to-layer="520" to-port="0"/>
		<edge from-layer="520" from-port="3" to-layer="521" to-port="0"/>
		<edge from-layer="521" from-port="1" to-layer="522" to-port="0"/>
		<edge from-layer="510" from-port="1" to-layer="523" to-port="0"/>
		<edge from-layer="522" from-port="1" to-layer="523" to-port="1"/>
		<edge from-layer="511" from-port="1" to-layer="524" to-port="0"/>
		<edge from-layer="520" from-port="3" to-layer="524" to-port="1"/>
		<edge from-layer="524" from-port="2" to-layer="525" to-port="0"/>
		<edge from-layer="525" from-port="1" to-layer="526" to-port="0"/>
		<edge from-layer="526" from-port="3" to-layer="527" to-port="0"/>
		<edge from-layer="527" from-port="1" to-layer="528" to-port="0"/>
		<edge from-layer="523" from-port="2" to-layer="529" to-port="0"/>
		<edge from-layer="528" from-port="1" to-layer="529" to-port="1"/>
		<edge from-layer="474" from-port="2" to-layer="530" to-port="0"/>
		<edge from-layer="529" from-port="2" to-layer="530" to-port="1"/>
		<edge from-layer="530" from-port="2" to-layer="531" to-port="0"/>
		<edge from-layer="531" from-port="1" to-layer="532" to-port="0"/>
		<edge from-layer="532" from-port="2" to-layer="533" to-port="0"/>
		<edge from-layer="534" from-port="1" to-layer="535" to-port="0"/>
		<edge from-layer="535" from-port="1" to-layer="536" to-port="0"/>
		<edge from-layer="533" from-port="1" to-layer="537" to-port="0"/>
		<edge from-layer="536" from-port="1" to-layer="537" to-port="1"/>
		<edge from-layer="537" from-port="2" to-layer="538" to-port="0"/>
		<edge from-layer="538" from-port="1" to-layer="539" to-port="0"/>
		<edge from-layer="539" from-port="1" to-layer="540" to-port="0"/>
		<edge from-layer="540" from-port="1" to-layer="541" to-port="0"/>
		<edge from-layer="541" from-port="1" to-layer="542" to-port="0"/>
		<edge from-layer="538" from-port="1" to-layer="543" to-port="0"/>
		<edge from-layer="542" from-port="1" to-layer="543" to-port="1"/>
		<edge from-layer="543" from-port="2" to-layer="544" to-port="0"/>
		<edge from-layer="544" from-port="1" to-layer="545" to-port="0"/>
		<edge from-layer="545" from-port="1" to-layer="546" to-port="0"/>
		<edge from-layer="546" from-port="1" to-layer="547" to-port="0"/>
		<edge from-layer="547" from-port="1" to-layer="548" to-port="0"/>
		<edge from-layer="548" from-port="3" to-layer="549" to-port="0"/>
		<edge from-layer="549" from-port="1" to-layer="550" to-port="0"/>
		<edge from-layer="538" from-port="1" to-layer="551" to-port="0"/>
		<edge from-layer="550" from-port="1" to-layer="551" to-port="1"/>
		<edge from-layer="539" from-port="1" to-layer="552" to-port="0"/>
		<edge from-layer="548" from-port="3" to-layer="552" to-port="1"/>
		<edge from-layer="552" from-port="2" to-layer="553" to-port="0"/>
		<edge from-layer="553" from-port="1" to-layer="554" to-port="0"/>
		<edge from-layer="554" from-port="3" to-layer="555" to-port="0"/>
		<edge from-layer="555" from-port="1" to-layer="556" to-port="0"/>
		<edge from-layer="551" from-port="2" to-layer="557" to-port="0"/>
		<edge from-layer="556" from-port="1" to-layer="557" to-port="1"/>
		<edge from-layer="557" from-port="2" to-layer="558" to-port="0"/>
		<edge from-layer="558" from-port="1" to-layer="559" to-port="0"/>
		<edge from-layer="559" from-port="1" to-layer="560" to-port="0"/>
		<edge from-layer="560" from-port="2" to-layer="561" to-port="0"/>
		<edge from-layer="562" from-port="1" to-layer="563" to-port="0"/>
		<edge from-layer="563" from-port="1" to-layer="564" to-port="0"/>
		<edge from-layer="561" from-port="1" to-layer="565" to-port="0"/>
		<edge from-layer="564" from-port="1" to-layer="565" to-port="1"/>
		<edge from-layer="565" from-port="2" to-layer="566" to-port="0"/>
		<edge from-layer="566" from-port="1" to-layer="567" to-port="0"/>
		<edge from-layer="567" from-port="1" to-layer="568" to-port="0"/>
		<edge from-layer="568" from-port="1" to-layer="569" to-port="0"/>
		<edge from-layer="569" from-port="1" to-layer="570" to-port="0"/>
		<edge from-layer="566" from-port="1" to-layer="571" to-port="0"/>
		<edge from-layer="570" from-port="1" to-layer="571" to-port="1"/>
		<edge from-layer="571" from-port="2" to-layer="572" to-port="0"/>
		<edge from-layer="572" from-port="1" to-layer="573" to-port="0"/>
		<edge from-layer="573" from-port="1" to-layer="574" to-port="0"/>
		<edge from-layer="574" from-port="1" to-layer="575" to-port="0"/>
		<edge from-layer="575" from-port="1" to-layer="576" to-port="0"/>
		<edge from-layer="576" from-port="3" to-layer="577" to-port="0"/>
		<edge from-layer="577" from-port="1" to-layer="578" to-port="0"/>
		<edge from-layer="566" from-port="1" to-layer="579" to-port="0"/>
		<edge from-layer="578" from-port="1" to-layer="579" to-port="1"/>
		<edge from-layer="567" from-port="1" to-layer="580" to-port="0"/>
		<edge from-layer="576" from-port="3" to-layer="580" to-port="1"/>
		<edge from-layer="580" from-port="2" to-layer="581" to-port="0"/>
		<edge from-layer="581" from-port="1" to-layer="582" to-port="0"/>
		<edge from-layer="582" from-port="3" to-layer="583" to-port="0"/>
		<edge from-layer="583" from-port="1" to-layer="584" to-port="0"/>
		<edge from-layer="579" from-port="2" to-layer="585" to-port="0"/>
		<edge from-layer="584" from-port="1" to-layer="585" to-port="1"/>
		<edge from-layer="530" from-port="2" to-layer="586" to-port="0"/>
		<edge from-layer="585" from-port="2" to-layer="586" to-port="1"/>
		<edge from-layer="586" from-port="2" to-layer="587" to-port="0"/>
		<edge from-layer="587" from-port="2" to-layer="588" to-port="0"/>
		<edge from-layer="588" from-port="1" to-layer="589" to-port="0"/>
		<edge from-layer="589" from-port="1" to-layer="590" to-port="0"/>
		<edge from-layer="591" from-port="1" to-layer="592" to-port="0"/>
		<edge from-layer="592" from-port="1" to-layer="593" to-port="0"/>
		<edge from-layer="590" from-port="1" to-layer="594" to-port="0"/>
		<edge from-layer="593" from-port="1" to-layer="594" to-port="1"/>
		<edge from-layer="594" from-port="2" to-layer="595" to-port="0"/>
		<edge from-layer="595" from-port="1" to-layer="596" to-port="0"/>
		<edge from-layer="596" from-port="1" to-layer="597" to-port="0"/>
		<edge from-layer="597" from-port="1" to-layer="598" to-port="0"/>
		<edge from-layer="598" from-port="1" to-layer="599" to-port="0"/>
		<edge from-layer="595" from-port="1" to-layer="600" to-port="0"/>
		<edge from-layer="599" from-port="1" to-layer="600" to-port="1"/>
		<edge from-layer="600" from-port="2" to-layer="601" to-port="0"/>
		<edge from-layer="601" from-port="1" to-layer="602" to-port="0"/>
		<edge from-layer="602" from-port="1" to-layer="603" to-port="0"/>
		<edge from-layer="603" from-port="1" to-layer="604" to-port="0"/>
		<edge from-layer="604" from-port="1" to-layer="605" to-port="0"/>
		<edge from-layer="605" from-port="3" to-layer="606" to-port="0"/>
		<edge from-layer="606" from-port="1" to-layer="607" to-port="0"/>
		<edge from-layer="595" from-port="1" to-layer="608" to-port="0"/>
		<edge from-layer="607" from-port="1" to-layer="608" to-port="1"/>
		<edge from-layer="596" from-port="1" to-layer="609" to-port="0"/>
		<edge from-layer="605" from-port="3" to-layer="609" to-port="1"/>
		<edge from-layer="609" from-port="2" to-layer="610" to-port="0"/>
		<edge from-layer="610" from-port="1" to-layer="611" to-port="0"/>
		<edge from-layer="611" from-port="3" to-layer="612" to-port="0"/>
		<edge from-layer="612" from-port="1" to-layer="613" to-port="0"/>
		<edge from-layer="608" from-port="2" to-layer="614" to-port="0"/>
		<edge from-layer="613" from-port="1" to-layer="614" to-port="1"/>
		<edge from-layer="614" from-port="2" to-layer="615" to-port="0"/>
		<edge from-layer="615" from-port="1" to-layer="616" to-port="0"/>
		<edge from-layer="616" from-port="2" to-layer="617" to-port="0"/>
		<edge from-layer="617" from-port="1" to-layer="618" to-port="0"/>
		<edge from-layer="618" from-port="1" to-layer="619" to-port="0"/>
		<edge from-layer="620" from-port="1" to-layer="621" to-port="0"/>
		<edge from-layer="621" from-port="1" to-layer="622" to-port="0"/>
		<edge from-layer="619" from-port="1" to-layer="623" to-port="0"/>
		<edge from-layer="622" from-port="1" to-layer="623" to-port="1"/>
		<edge from-layer="623" from-port="2" to-layer="624" to-port="0"/>
		<edge from-layer="624" from-port="1" to-layer="625" to-port="0"/>
		<edge from-layer="625" from-port="1" to-layer="626" to-port="0"/>
		<edge from-layer="626" from-port="1" to-layer="627" to-port="0"/>
		<edge from-layer="627" from-port="1" to-layer="628" to-port="0"/>
		<edge from-layer="624" from-port="1" to-layer="629" to-port="0"/>
		<edge from-layer="628" from-port="1" to-layer="629" to-port="1"/>
		<edge from-layer="629" from-port="2" to-layer="630" to-port="0"/>
		<edge from-layer="630" from-port="1" to-layer="631" to-port="0"/>
		<edge from-layer="631" from-port="1" to-layer="632" to-port="0"/>
		<edge from-layer="632" from-port="1" to-layer="633" to-port="0"/>
		<edge from-layer="633" from-port="1" to-layer="634" to-port="0"/>
		<edge from-layer="634" from-port="3" to-layer="635" to-port="0"/>
		<edge from-layer="635" from-port="1" to-layer="636" to-port="0"/>
		<edge from-layer="624" from-port="1" to-layer="637" to-port="0"/>
		<edge from-layer="636" from-port="1" to-layer="637" to-port="1"/>
		<edge from-layer="625" from-port="1" to-layer="638" to-port="0"/>
		<edge from-layer="634" from-port="3" to-layer="638" to-port="1"/>
		<edge from-layer="638" from-port="2" to-layer="639" to-port="0"/>
		<edge from-layer="639" from-port="1" to-layer="640" to-port="0"/>
		<edge from-layer="640" from-port="3" to-layer="641" to-port="0"/>
		<edge from-layer="641" from-port="1" to-layer="642" to-port="0"/>
		<edge from-layer="637" from-port="2" to-layer="643" to-port="0"/>
		<edge from-layer="642" from-port="1" to-layer="643" to-port="1"/>
		<edge from-layer="643" from-port="2" to-layer="644" to-port="0"/>
		<edge from-layer="644" from-port="1" to-layer="645" to-port="0"/>
		<edge from-layer="645" from-port="1" to-layer="646" to-port="0"/>
		<edge from-layer="646" from-port="2" to-layer="647" to-port="0"/>
		<edge from-layer="648" from-port="1" to-layer="649" to-port="0"/>
		<edge from-layer="649" from-port="1" to-layer="650" to-port="0"/>
		<edge from-layer="647" from-port="1" to-layer="651" to-port="0"/>
		<edge from-layer="650" from-port="1" to-layer="651" to-port="1"/>
		<edge from-layer="651" from-port="2" to-layer="652" to-port="0"/>
		<edge from-layer="652" from-port="1" to-layer="653" to-port="0"/>
	</edges>
	<meta_data>
		<MO_version value="1.5.12.49d067a0"/>
		<cli_parameters>
			<data_type value="FP32"/>
			<disable_fusing value="False"/>
			<disable_gfusing value="False"/>
			<disable_nhwc_to_nchw value="True"/>
			<disable_omitting_optional value="False"/>
			<disable_resnet_optimization value="False"/>
			<enable_flattening_nested_params value="False"/>
			<extensions value="DIR"/>
			<framework value="tf"/>
			<generate_deprecated_IR_V2 value="False"/>
			<input_model value="DIR/latest_net_G.pb"/>
			<input_model_is_text value="False"/>
			<k value="DIR/CustomLayersMapping.xml"/>
			<legacy_mxnet_model value="False"/>
			<log_level value="ERROR"/>
			<mean_values value="()"/>
			<model_name value="latest_net_G_FP32"/>
			<move_to_preprocess value="False"/>
			<offload_unsupported_operations_to_tf value="False"/>
			<output_dir value="DIR"/>
			<remove_output_softmax value="False"/>
			<reverse_input_channels value="False"/>
			<save_params_from_nd value="False"/>
			<scale_values value="()"/>
			<silent value="False"/>
			<version value="False"/>
			<unset unset_cli_parameters="batch, counts, finegrain_fusing, freeze_placeholder_with_value, input, input_checkpoint, input_meta_graph, input_proto, input_shape, input_symbol, mean_file, mean_file_offsets, nd_prefix_name, output, pretrained_model_name, saved_model_dir, saved_model_tags, scale, tensorboard_logdir, tensorflow_custom_layer_libraries, tensorflow_custom_operations_config_update, tensorflow_object_detection_api_pipeline_config, tensorflow_operation_patterns, tensorflow_subgraph_patterns, tensorflow_use_custom_operations_config"/>
		</cli_parameters>
	</meta_data>
</net>
